tudui_0.pth (torch, 587399 bytes, 10 tensors)

weight f4 [32, 3, 5, 5]
0	0xbd4c14b4	-0.04982443
1	0x3d473e83	0.0486436
2	0xbd91d14e	-0.0712
3	0x3d72ac9b	0.05924664
4	0x3d149090	0.036270678
5	0xbd7caa17	-0.061685648
6	0xbde89409	-0.113563605
7	0x3cbd5600	0.023112297
8	0x3dab096b	0.08351406
9	0xbacd9650	-0.0015685055
10	0x3d0b5533	0.0340168
11	0xbd9c5757	-0.07633846
12	0x3cb8b36d	0.022546494
13	0xbd6a0707	-0.057135608
14	0x3d00c058	0.031433433
15	0xbdb3f4a4	-0.08786896
16	0x3da5dd7d	0.08098886
17	0xbc8b3143	-0.016991263
18	0x3dacc10b	0.084352575
19	0x3dc3c6f1	0.095594294
20	0xbd69b2f6	-0.057055436
21	0xbd96b9a9	-0.073596306
22	0xbda7b946	-0.08189635
23	0xbd8ecf42	-0.06973125
24	0x3cbfa2a8	0.02339299
25	0x3c314fe0	0.010822266
26	0x3dc88b10	0.09792149
27	0xbde24aaa	-0.11049397
28	0xbd856415	-0.0651323
29	0xbd923412	-0.07138838
30	0x3b4b669c	0.0031036502
31	0xbd83f4ec	-0.064431995
32	0xbdebddf7	-0.11516946
33	0xbda00882	-0.07814123
34	0xbdf1eefe	-0.11813162
35	0xbd6a33b4	-0.057178214
36	0xbd44a6c3	-0.0480106
37	0x3cc35103	0.02384234
38	0x3cad7f97	0.021179004
39	0xbd3e5a91	-0.04647309
40	0xbdb28928	-0.08717567
41	0xbdcb8e18	-0.099392116
42	0xbda19436	-0.07889597
43	0xbcf28824	-0.029605933
44	0x3c83a897	0.0160716
45	0x3dc7d311	0.097570546
46	0x3d0cd0a9	0.03437868
47	0x3dcaa484	0.0989466
48	0x3d9d4f9d	0.07681201
49	0x3d4c24a6	0.04983964
50	0xbd32607f	-0.043549057
51	0xbdd16db8	-0.10226005
52	0xbda3384f	-0.079697244
53	0x3cc89886	0.024486791
54	0xbd696d1b	-0.056988817
55	0xbe04c5ac	-0.12966031
56	0x3d84e30f	0.064886205
57	0xbdb44e1f	-0.08803963
58	0xbdfaac03	-0.1223984
59	0xbdd9623a	-0.10614438
60	0xbdb947a8	-0.090468705
61	0x3d01c249	0.031679425
62	0x3c4222a6	0.011849081
63	0xbd788850	-0.060676873
64	0xbdee2684	-0.1162844
65	0xbda30ac0	-0.07961035
66	0x3d4454ee	0.047932558
67	0xbdc19d00	-0.094537735
68	0xbdb9553c	-0.0904946
69	0x3d53edd2	0.051740475
70	0xbdff525d	-0.124668814
71	0xbd3d0d6d	-0.046155382
72	0x3da62eab	0.0811437
73	0x3da62281	0.0811205
74	0x3d0fbd79	0.035092805
75	0xbde6dcbe	-0.11272572
76	0x3d711e4c	0.058866784
77	0x3de4b552	0.111673966
78	0xbda32eb3	-0.079678915
79	0xbdc0af56	-0.09408443
80	0x3ddaada5	0.10677651
81	0xbcaccc54	-0.021093525
82	0xbca61b6b	-0.020276746
83	0xbc70b6d0	-0.014692023
84	0xbd6dedb9	-0.058088038
85	0x3d2e732b	0.0425903
86	0x3da9e898	0.08296317
87	0x3dd4c3df	0.10388922
88	0x3bb4f071	0.005521827
89	0xbd51cf44	-0.051223055
90	0x3b65bf33	0.003505659
91	0xbd2f1927	-0.042748597
92	0x3db2583a	0.08708234
93	0x3cd7c21c	0.026337676
94	0x3cecb2ad	0.028893793
95	0xbd095816	-0.03353127
96	0x3da92482	0.082589164
97	0x3d7f26f2	0.062293
98	0x3be525df	0.00699304
99	0x3d6b95a1	0.057515744
100	0x3db21532	0.08695449
101	0xbd0897c8	-0.033347875
102	0xbc870324	-0.01648099
103	0x3d6d9e4a	0.058012284
104	0x3a4c8302	0.0007801504
105	0xbd21b041	-0.03947473
106	0x3cd663c2	0.026170615
107	0xbd3f3508	-0.046681434
108	0x3da96f36	0.08273165
109	0x3d976162	0.07391621
110	0xbc9f68f3	-0.019459223
111	0x3ba666b6	0.005078162
112	0x3c27373d	0.010206041
113	0x3cd3a1c7	0.025833977
114	0xbd58a33e	-0.052890055
115	0xbd9569cb	-0.07295569
116	0xbde05460	-0.10953593
117	0xbd08b2a7	-0.0333735
118	0xbca399a1	-0.019970717
119	0x3d69b916	0.057061277
120	0x3b224ea7	0.0024766119
121	0xbde26cb2	-0.11055888
122	0xbc657323	-0.0140045015
123	0x3db77c3c	0.08959243
124	0xbcc7ea58	-0.024403736
125	0xbde25540	-0.110514164
126	0x3bc81b65	0.0061067813
127	0x3d350fa2	0.04420436
128	0xbdd70d35	-0.10500566
129	0x3bb863b5	0.0056271204
130	0xbca9a08b	-0.020706436
131	0xbda048a4	-0.07826355
132	0xbd96cd8b	-0.07363423
133	0x3dc3b436	0.09555857
134	0xbde5dfd1	-0.1122433
135	0xbd79daeb	-0.060999792
136	0xbcbee238	-0.023301229
137	0x3d40f7d3	0.047111344
138	0x3abddd90	0.0014485586
139	0xbb61f2dd	-0.0034477033
140	0xbdda317e	-0.10653971
141	0x3db1be63	0.086788915
142	0x3cb057c8	0.021526232
143	0xba3f36ce	-0.00072942383
144	0xbd9cf881	-0.07664586
145	0x3db39668	0.08768922
146	0x3dc7d4b8	0.0975737
147	0x3d057f86	0.03259232
148	0xbd6b043a	-0.057377078
149	0x3d5ab843	0.053398382
150	0xbd785c13	-0.060634684
151	0x3db34c78	0.0875482
152	0xbd92fb61	-0.07176853
153	0xbde4ad09	-0.11165816
154	0xbcf6f057	-0.0301439
155	0x3d6d47ef	0.05792993
156	0x3dbf4f59	0.09341306
157	0xbd4cca41	-0.04999757
158	0x3d24b19f	0.040208455
159	0xbd9c30b8	-0.0762648
160	0x3c55ff1f	0.013061314
161	0x3ddf5459	0.1090476
162	0x3d09a7f6	0.033607446
163	0xbdccc65a	-0.0999877
164	0x3d669122	0.056290753
165	0x3defd246	0.11710028
166	0x3db6db07	0.08928495
167	0x3cd63bef	0.026151625
168	0x3db32698	0.087475955
169	0xbd803cbc	-0.06261584
170	0x3d313d38	0.043271273
171	0xbdb466ad	-0.08808646
172	0xbb5a299b	-0.003328896
173	0xbd332858	-0.043739647
174	0x3dac5852	0.08415283
175	0x3d744e72	0.059645124
176	0xbce076a3	-0.02740032
177	0xbc22971a	-0.009923721
178	0x3c12e6d3	0.008966166
179	0xbdf4c510	-0.11951649
180	0x3dac4a93	0.084126614
181	0x3d8e08d3	0.06935277
182	0xbda26617	-0.07929628
183	0x3d12bbb4	0.03582354
184	0xbc362a23	-0.011118445
185	0xbd58e2e3	-0.05295075
186	0x3d288320	0.041140676
187	0xbdb0f77c	-0.08640954
188	0xbceed57e	-0.029154535
189	0xbd21a11a	-0.03946028
190	0x3d97429e	0.07385753
191	0xbdc28752	-0.094984666
192	0xbdb950ef	-0.0904864
193	0x3d711ea1	0.0588671
194	0x3de16355	0.11005274
195	0xbdcdbfa5	-0.10046319
196	0x3dcf4243	0.1012006
197	0x3d704078	0.058655232
198	0xbd6a2fb2	-0.057174392
199	0x3cb2f2fe	0.021844383
200	0xbdf8ae81	-0.12142659
201	0xbd8bb2ec	-0.06821236
202	0x3d917458	0.07102269
203	0x3c736f69	0.014858105
204	0xbd346366	-0.044040106
205	0x3d452f4d	0.048140813
206	0xbd0e709e	-0.03477537
207	0xbdd2d3d2	-0.10294308
208	0x3c1c8c70	0.009554967
209	0xbdceb793	-0.10093608
210	0xbdc748cc	-0.09730682
211	0x3d5cd070	0.05390972
212	0xbc6cedd4	-0.0144609995
213	0x3dae0dbd	0.08498714
214	0xbc486315	-0.012230654
215	0xbb080f86	-0.0020761206
216	0x3c5d3a9e	0.013502745
217	0xbd9ebfe2	-0.077514425
218	0xbcc3448c	-0.023836397
219	0xbd6754cb	-0.05647735
220	0xbdbbc9dc	-0.09169361
221	0x3d6b5cf8	0.05746171
222	0xbddbe6e3	-0.107373975
223	0xbc68f4bc	-0.0142185055
224	0xbdc33f36	-0.09533541
225	0xbda6fbba	-0.08153482
226	0xbd927817	-0.071518116
227	0x3cbbfad2	0.022946749
228	0x3db26c83	0.08712103
229	0xbd911e7c	-0.070858926
230	0x3cef9f09	0.029250639
231	0xbdb57e4b	-0.08861979
232	0xbc93188c	-0.01795604
233	0xbde8c8e2	-0.1136644
234	0x3b4693c1	0.003030047
235	0xbd51f8b4	-0.051262572
236	0xbd64fd14	-0.055905417
237	0xbc781947	-0.015142745
238	0xbcc790be	-0.02436101
239	0x3c6c38a4	0.014417801
240	0x3cd67949	0.02618088
241	0x3d34f989	0.044183288
242	0xbdbc7018	-0.09201068
243	0x3c5d82d6	0.013519963
244	0xbdb3ded6	-0.08782737
245	0x3dc13e93	0.09435763
246	0xbdac7ccf	-0.08422243
247	0xbb2fa49c	-0.0026800996
248	0xbca964ec	-0.020678006
249	0xba934de1	-0.001123842
250	0x3d031e33	0.032011222
251	0xbceaace5	-0.028646896
252	0xbcaa2314	-0.02076868
253	0xbbb1ca52	-0.00542573
254	0x3db07a87	0.0861712
255	0xbc0fe40a	-0.008782396

bias f4 [32]
0	0x3d9614bb	0.07328173
1	0x3d31d770	0.043418348
2	0xbd86c0e3	-0.06579759
3	0x3d4abf4d	0.049498845
4	0x3e235aa3	0.15952544
5	0xbc8452f2	-0.016152833
6	0xbccaa5d8	-0.024737284
7	0xbd030fe0	-0.03199756
8	0xbc8ab08a	-0.016929884
9	0xbdf79655	-0.120892204
10	0xbe15cfcb	-0.14630048
11	0x3db0728b	0.08615597
12	0x3b81a2bc	0.003956167
13	0x3d3bb3ef	0.045825895
14	0x3c974138	0.018463716
15	0xbdc3bab2	-0.09557094
16	0x3dd6e481	0.104928024
17	0x3cc57926	0.02410562
18	0xbddf4f5f	-0.10903811
19	0x3dcd3fe9	0.100219555
20	0xbd10fe8b	-0.035399
21	0xbc84761b	-0.016169598
22	0xbdbb03b8	-0.09131569
23	0x3e100de6	0.14067802
24	0xbd2aab80	-0.04166746
25	0x3db71006	0.08938603
26	0x3c91ddcc	0.017805956
27	0x3cdecf7f	0.027198551
28	0x3be8794d	0.0070945383
29	0xbd50fd21	-0.051022653
30	0xbd39753b	-0.045277815
31	0x3d1678d0	0.03673631

weight f4 [32, 32, 5, 5]
0	0x3bb60b47	0.0055555436
1	0x3ca0dba4	0.019635983
2	0xbd05f273	-0.03270192
3	0x3b0fcc91	0.0021942
4	0x3c6acf37	0.01433163
5	0x3c750db6	0.014956882
6	0x3c965c3e	0.018354531
7	0x3c97ff98	0.018554494
8	0xbbed936f	-0.0072502415
9	0xbc770317	-0.01507642
10	0xbd09e7df	-0.033668395
11	0x3c641f91	0.013923542
12	0xbc8dee89	-0.017325656
13	0x3cc03ebf	0.02346742
14	0x3a6edad3	0.0009111587
15	0xbd092e0f	-0.03349119
16	0xbbc500e8	-0.006012071
17	0xbaab7c1d	-0.0013083253
18	0x3cac01bc	0.02099692
19	0x3cc1321d	0.023583466
20	0x3c3bc738	0.011461072
21	0x3cfebac8	0.031094924
22	0xbc6f425e	-0.0146032255
23	0x3c15af36	0.009136012
24	0x3bb951c8	0.005655501
25	0x3d15b444	0.036548868
26	0x3c9ce252	0.019150887
27	0x3cc06f90	0.023490697
28	0xbc49fcbd	-0.012328324
29	0x3ce81e2e	0.028334703
30	0x3bbe10e6	0.0058003543
31	0xbaa6e355	-0.0012732545
32	0x3c381548	0.011235543
33	0xbc179e1e	-0.009254007
34	0xbcb0bd07	-0.02157451
35	0xbc733656	-0.014844498
36	0x3cd13373	0.025537228
37	0x3c3950db	0.011310781
38	0xbbd6d88d	-0.0065565766
39	0xbb0f344f	-0.0021851247
40	0x3b1ad76b	0.0023626934
41	0x3d10ce2b	0.035352867
42	0x3cb8d01d	0.022560174
43	0x3cc73a2c	0.02431973
44	0x3d09fb15	0.033686716
45	0x3cdc1d64	0.026869483
46	0x3c80c0b2	0.015716884
47	0x3ccce5ba	0.025011886
48	0x3cd0ba33	0.025479412
49	0xbbab7c7e	-0.0052333465
50	0xbca69fe2	-0.02033991
51	0x3c62c491	0.01384081
52	0x3c4ac170	0.012375221
53	0xbcf0262b	-0.029315075
54	0xbcebdad3	-0.028790867
55	0xb7cc813a	-2.437887e-05
56	0x3cb29ee6	0.021804284
57	0x3cb7d0a7	0.02243836
58	0x3b8a14f0	0.0042139217
59	0xbbe9252a	-0.007115026
60	0x3ccfaaf6	0.025350075
61	0xbc73c7a3	-0.01487914
62	0xbc6f2f18	-0.01459863
63	0x3d0688c5	0.032845277
64	0xbc284add	-0.010271755
65	0x3c9be191	0.019028457
66	0x3d01711c	0.03160201
67	0xbbeb10d5	-0.0071736374
68	0xbc19475d	-0.009355393
69	0xbc1f2ceb	-0.009715299
70	0x3c5310a1	0.012882383
71	0xbcaf3abb	-0.02139031
72	0x3cec50b2	0.028847072
73	0xbcf59c69	-0.029981809
74	0x3c34e7d1	0.011041597
75	0x3cc504ce	0.024050143
76	0xbc8775ee	-0.016535725
77	0xbbda3606	-0.006659272
78	0x3cdf1419	0.027231263
79	0xbb4ac15c	-0.0030938005
80	0xbcbf003c	-0.023315541
81	0x3ce5060c	0.027956985
82	0xbcb70fe8	-0.022346452
83	0x3cee99d2	0.029126082
84	0x3d14cf65	0.0363306
85	0xbb5b33f0	-0.0033447705
86	0x3c79522c	0.015217345
87	0xbbfb723b	-0.0076735294
88	0x3cdb08d2	0.026737604
89	0xbb383a80	-0.002811104
90	0x3cd9c1c5	0.026581654
91	0xbd031849	-0.032005582
92	0x3cff852e	0.031191435
93	0xbc5782c1	-0.013153733
94	0x3ce1b121	0.027550282
95	0x3c259bee	0.010107977
96	0xbc6031ff	-0.013683795
97	0xba9e089e	-0.0012057011
98	0x3c404023	0.011734041
99	0x3c637e54	0.013885099
100	0xba7a44a3	-0.0009546971
101	0xbaa18421	-0.0012322703
102	0x3c91df3d	0.017806644
103	0xbc7c8871	-0.01541339
104	0x3cec1906	0.028820526
105	0xbcd62d30	-0.026144594
106	0xbc1f7d0e	-0.009734405
107	0xbcff6963	-0.031178182
108	0x3b1d4cbd	0.0024002038
109	0xbbc6d49f	-0.006067827
110	0xbc48d3db	-0.0122575415
111	0x3c35748c	0.01107515
112	0xbbe05b89	-0.0068468493
113	0x3d1b248d	0.037876654
114	0xbc8ee9e5	-0.017445514
115	0xbc595e8e	-0.0132671725
116	0xbbaf8dc4	-0.005357476
117	0x3cb10892	0.021610532
118	0xbc83577d	-0.016032929
119	0x3d0afa25	0.033929963
120	0xbc6fe208	-0.014641292
121	0xbc096813	-0.00838663
122	0x3d00f2ee	0.031481676
123	0x3b7b854e	0.0038379016
124	0xbb56ac55	-0.0032756526
125	0xbbe088cd	-0.0068522454
126	0x3c8984bd	0.016786927
127	0x3d1aac59	0.03776202
128	0xbc939f14	-0.01802019
129	0xbb8a03d2	-0.004211881
130	0xbd06055f	-0.032719966
131	0xbb96974f	-0.004595674
132	0x3c66419d	0.014053729
133	0x3b896f54	0.0041941795
134	0xbcb7a540	-0.022417665
135	0xbd0d0c5d	-0.03443562
136	0xbc6a087d	-0.01428425
137	0xbccea19f	-0.025223551
138	0xbc02fd4d	-0.007994962
139	0xbc064c69	-0.008196929
140	0xbb979dc0	-0.0046269596
141	0xbcf891dc	-0.030342989
142	0x3c246010	0.010032669
143	0x3cffe792	0.031238351
144	0xbc8920d4	-0.016739286
145	0xbaff7c8e	-0.0019492076
146	0x3b3465c5	0.002752648
147	0xbc208055	-0.009796222
148	0x3ce33356	0.02773444
149	0x3d0ab1a9	0.033860836
150	0xbcd12ee4	-0.025535055
151	0xbce278ce	-0.027645495
152	0x3c6dd1d9	0.014515364
153	0x3d0f66f6	0.0350103
154	0xbcb3a838	-0.021930799
155	0x3d2647bf	0.040595766
156	0x3b470f04	0.003037394
157	0x3ccc6b31	0.024953457
158	0x3ca87af6	0.020566445
159	0x3d182f9a	0.03715477
160	0x3d17dd7a	0.03707645
161	0xbcb97840	-0.022640347
162	0x39298ae4	0.00016168837
163	0xbb7c8732	-0.003853273
164	0x3c0732f1	0.0082518915
165	0x3c536cbc	0.012904342
166	0xbc2e6a44	-0.010645453
167	0x3ca875ee	0.020564046
168	0xbaf351ad	-0.001856377
169	0x3d1c5d8a	0.038175143
170	0xbcbc268c	-0.0229676
171	0xbcb167a3	-0.021655863
172	0xbcf09c79	-0.029371487
173	0x3a1d5c4a	0.0006002827
174	0x3bf3eee7	0.007444251
175	0xbd0ce8ff	-0.03440189
176	0x3c137ed1	0.009002403
177	0x3c71c965	0.014757489
178	0xbc60d36a	-0.01372228
179	0x3c86844c	0.016420506
180	0xbd0a5c4e	-0.033779435
181	0xbc86377a	-0.016383875
182	0xbbcfbc1a	-0.006339562
183	0x3b740cae	0.0037239003
184	0x3bdb6d6b	0.0066963932
185	0x3b80130c	0.0039085206
186	0x3c9548d9	0.018223213
187	0x3c3df48d	0.01159395
188	0x3ce43f9d	0.027862364
189	0xbcdd5c3f	-0.027021525
190	0x3d0b5b43	0.03402258
191	0xbc41dfbc	-0.011833128
192	0xbd0c6f51	-0.034285847
193	0x3c7294f8	0.014806025
194	0xbd072c24	-0.03300108
195	0xbc475f6c	-0.012168746
196	0x3c8ae197	0.016953273
197	0x3cdf94c0	0.02729261
198	0x3c21f8d5	0.009885986
199	0x3cba45ca	0.022738356
200	0xbb2c7ef3	-0.0026320785
201	0x3c96f379	0.018426644
202	0x3ce7f33b	0.028314224
203	0x3d12ab26	0.03580775
204	0xbca27d74	-0.019835211
205	0x3c899081	0.016792538
206	0x3c271194	0.010197062
207	0x3ca332fc	0.019921772
208	0x3d0831aa	0.03325049
209	0xbb1609c2	-0.0022894
210	0xbc184c50	-0.009295538
211	0xbc99e5da	-0.01878636
212	0x3bca049f	0.0061651017
213	0x3d0d7c6b	0.034542482
214	0xbc441ddd	-0.011970011
215	0xbb84d8f9	-0.0040541855
216	0xbc893482	-0.01674867
217	0xbc67bd76	-0.014144292
218	0x3c9d6754	0.01921431
219	0xbcc38dc5	-0.023871312
220	0xbab770d8	-0.0013995422
221	0x3d0e2af4	0.034708932
222	0x3d12bdce	0.035825543
223	0x3d053397	0.032519903
224	0xbcfc6bd9	-0.030813145
225	0x3ba8e448	0.0051541664
226	0xbcb8ba4a	-0.022549767
227	0xbcd1f4a6	-0.025629353
228	0x3c6726cc	0.014108371
229	0xbcd3705d	-0.025810415
230	0xbd18a8dd	-0.037270416
231	0xbc82f734	-0.015987016
232	0x3ae04069	0.001710904
233	0xbd01f0af	-0.031723674
234	0xbb209735	-0.002450419
235	0xbcee5a7b	-0.029095879
236	0x3d0198fe	0.031640045
237	0x3cd29cda	0.025709558
238	0xbba23f2e	-0.0049513793
239	0x3cdc62c1	0.026902558
240	0x3cfbb17a	0.030724276
241	0xbccebf1a	-0.025237609
242	0xbc039b67	-0.008032656
243	0x3c735cc2	0.014853658
244	0x3c4dbed6	0.012557706
245	0xbc6042a0	-0.01368776
246	0xbb3ef82b	-0.002913962
247	0x3a6e793f	0.00090970466
248	0x3cefd009	0.029274004
249	0x3cca7423	0.024713581
250	0x3c0440a4	0.008072052
251	0xbce7072c	-0.028201662
252	0x3c9c3761	0.019069375
253	0xbc8449eb	-0.016148528
254	0x3ceb9d56	0.028761547
255	0x3cf2fb9f	0.029660998

bias f4 [32]
0	0x3c955535	0.018229106
1	0xbc3ccece	-0.011523915
2	0x3cc27c2d	0.023740852
3	0x3d4234d7	0.047413673
4	0x3d3fed79	0.04685733
5	0x3d169f39	0.03677294
6	0xbc3adf5e	-0.011405794
7	0xbd0eafcf	-0.034835633
8	0xbd268a56	-0.04065927
9	0xbd7de2ca	-0.06198386
10	0x3af460f4	0.0018644617
11	0x3d1643af	0.03668564
12	0x3c4dd09c	0.012561943
13	0x3d2ddb34	0.042445377
14	0x3c2f2b33	0.010691452
15	0x3d4270c6	0.04747083
16	0x3cf96fc3	0.0304488
17	0x3b79f8d6	0.0038142703
18	0x3cbb1bb3	0.022840356
19	0xbca9e0e8	-0.020737126
20	0xbd914963	-0.070940755
21	0x3c893cda	0.01675265
22	0xbc5e7fd6	-0.013580283
23	0xbbc72e8f	-0.0060785483
24	0xbca3cbda	-0.019994665
25	0x3c4de923	0.012567791
26	0x3d286674	0.041113332
27	0xbccb5757	-0.02482192
28	0xbd0bcd40	-0.03413129
29	0x3b150975	0.0022741233
30	0x3c17d639	0.009267383
31	0xbd27b0b1	-0.04093999

weight f4 [64, 32, 5, 5]
0	0xbc8b09e3	-0.016972488
1	0xbc70b9ac	-0.014692705
2	0xba10c851	-0.00055230135
3	0xbc870973	-0.016483998
4	0x3bd8579a	0.00660224
5	0xbc83206e	-0.016006675
6	0xbc125e23	-0.008933577
7	0xbc358e0d	-0.011081231
8	0x3ce21357	0.027597113
9	0xbcdb240f	-0.026750593
10	0x3d124ebb	0.035719614
11	0x3c433e37	0.011916689
12	0x3c86959d	0.016428763
13	0x3cff94bf	0.031198857
14	0x3d0794f7	0.03310105
15	0x3cef4f20	0.029212534
16	0x3c9a3d96	0.018828195
17	0xbc4ca977	-0.012491575
18	0x3bab398d	0.0052253664
19	0x3caaab7a	0.02083372
20	0x3c1e6c90	0.009669438
21	0xbc7c33b4	-0.015393186
22	0xbc019619	-0.007909321
23	0x3cf89940	0.030346513
24	0xbd082d72	-0.033246465
25	0x3d0822f7	0.03323647
26	0xbc81f2e8	-0.015862897
27	0xbc5b651c	-0.013390806
28	0xbb941be1	-0.004519925
29	0xbb8a2f8c	-0.004217094
30	0x3ceaa69f	0.028643904
31	0x3cb78899	0.022404002
32	0x3ca95a63	0.020672983
33	0x3d1c20bd	0.03811716
34	0x3ce7515d	0.02823704
35	0xbbb710d6	-0.005586724
36	0xbc875831	-0.016521545
37	0xbcd130e3	-0.025536006
38	0xbc076b26	-0.008265292
39	0x3c6c0e20	0.014407665
40	0xbcdbb994	-0.026821889
41	0xbb8daadc	-0.0043233465
42	0x3ce112f5	0.02747486
43	0x3cc57627	0.024104191
44	0xbd074809	-0.033027682
45	0x3cc8282b	0.024433216
46	0x3ce0557c	0.027384512
47	0xbb8b8abd	-0.0042584823
48	0xbcaf5747	-0.021403922
49	0x3d0dadf0	0.034589708
50	0xbb9b44a2	-0.0047384063
51	0x3c5642c5	0.0130774425
52	0xbc44dceb	-0.012015562
53	0x3cd3c457	0.025850458
54	0x3cb9a58b	0.022661945
55	0xbc0e3e29	-0.008681812
56	0x3c27b11d	0.010235098
57	0x3cd47c14	0.025938071
58	0x3cfbd51e	0.03074127
59	0x3c3a0d69	0.011355736
60	0xbce70b97	-0.028203769
61	0x3cc184d3	0.023622906
62	0x3d062b07	0.032755878
63	0x3d036122	0.032075055
64	0xbccc056a	-0.024904925
65	0xbceaf839	-0.028682815
66	0x3cbf5357	0.02335517
67	0xbd0a89c8	-0.033822805
68	0xbc57d94b	-0.013174365
69	0x3d04972c	0.03237073
70	0x3c698bab	0.014254491
71	0x3a69d4ca	0.00089199527
72	0xbb5d580a	-0.00337744
73	0xbc146e66	-0.009059524
74	0x3cdc1252	0.026864205
75	0xbc82d4da	-0.015970636
76	0xbbda11de	-0.006654962
77	0xbc44107f	-0.011966824
78	0x3d0e3a55	0.0347236
79	0xba7e8c6c	-0.00097102555
80	0xbbb181ff	-0.005417108
81	0x3d161a07	0.036645915
82	0xbc5d97ae	-0.013524933
83	0x3c9c920f	0.019112615
84	0x3b5fe938	0.0034166109
85	0xbbf5457f	-0.007485091
86	0xbc8191a0	-0.01581651
87	0xbbdb984c	-0.006701505
88	0x3ce15a1e	0.027508792
89	0x3ce6e0c4	0.028183348
90	0x3c4c2212	0.012459295
91	0x3cadefda	0.021232534
92	0x3ac27f0d	0.001483889
93	0x3bac91e6	0.005266416
94	0x3cb91b42	0.022596005
95	0xba85e92a	-0.0010216583
96	0xbba0ea3b	-0.004910735
97	0x3bd401c7	0.0064699384
98	0x3c9d762d	0.01922139
99	0xbd0aa367	-0.03384724
100	0x3c21cad8	0.009875022
101	0x3c561527	0.013066567
102	0x3caa201b	0.020767262
103	0xbc39158d	-0.011296642
104	0xbb9f18fb	-0.004855273
105	0xbd23275d	-0.03983246
106	0xbc1ad899	-0.009451055
107	0x3cedbccb	0.029020688
108	0xbd07621a	-0.03305254
109	0xbcf17276	-0.029473525
110	0xbb0c0917	-0.0021367723
111	0x3c2d4c68	0.010577299
112	0x3c8b16eb	0.016978702
113	0x3c8a02b8	0.016847
114	0x3c7f34f9	0.0155765945
115	0x3c10ab4f	0.008829906
116	0x3c46de3b	0.012137945
117	0x3bd61b6a	0.0065340297
118	0xbcb30a09	-0.021855371
119	0xbc8ddbc7	-0.017316712
120	0xbbc836ff	-0.0061100717
121	0x3d1c6954	0.038186386
122	0x3c8276e9	0.015925841
123	0xbba130d4	-0.004919151
124	0x3d1a7956	0.03771337
125	0xbc325bb8	-0.010886125
126	0xbb879e86	-0.0041387705
127	0xbab7098d	-0.0013964638
128	0xbd0ac72c	-0.03388135
129	0x3be8701c	0.0070934426
130	0x3c902165	0.017594049
131	0xbbfb5542	-0.0076700756
132	0xbc758f17	-0.014987729
133	0x3c516c6c	0.012782197
134	0xbcf894fe	-0.030344483
135	0x3c031c22	0.008002313
136	0xbb8f2503	-0.004368426
137	0xbcdbf464	-0.026849933
138	0x3d0d9e83	0.034574997
139	0xbb01275a	-0.0019707293
140	0x3c56a3d5	0.013100584
141	0x3d113814	0.03545387
142	0x3cb0dea9	0.021590548
143	0xbc12a02f	-0.008949324
144	0x3c6b97a1	0.014379413
145	0xbbd7dff7	-0.006587978
146	0x3c8ef02e	0.017448511
147	0xbcfb64a2	-0.030687634
148	0x3c15abd1	0.0091352025
149	0xbcc9aaa3	-0.024617499
150	0xbcc8f2c2	-0.024529818
151	0x3c075c01	0.008261682
152	0x3b7e1a3f	0.0038772968
153	0xbc521eb1	-0.0128247
154	0x3cf9f581	0.030512573
155	0x3c5689d9	0.013094389
156	0x3c414795	0.011796852
157	0x3c0c56d4	0.008565623
158	0x3d0db03f	0.03459191
159	0xbc9a9946	-0.018871915
160	0x3c8ce1e3	0.017197555
161	0xbc0597c9	-0.008153864
162	0x3c469efe	0.012122868
163	0xb9866405	-0.00025632992
164	0xb914e190	-0.00014198408
165	0x3cb6f29b	0.02233248
166	0x39862fa9	0.0002559398
167	0xbc53cf16	-0.012927791
168	0xbc8ac735	-0.016940692
169	0x3b8aedb0	0.0042397603
170	0x3cc07d99	0.02349739
171	0x3c1b640e	0.009484304
172	0x3c243f09	0.010024794
173	0x3d0dcf53	0.034621548
174	0xbcbeaeb7	-0.02327667
175	0xbc6e55ab	-0.014546792
176	0xbcbbfd1f	-0.022947846
177	0xbcd35f8f	-0.025802402
178	0xbc0db1a7	-0.008648313
179	0xbbd13c3c	-0.0063853543
180	0xbc744515	-0.014909049
181	0x3bc42ecf	0.0059870253
182	0xbcc2fd94	-0.023802556
183	0x3ccf2d90	0.02529028
184	0xbc85c5e6	-0.016329717
185	0xbb2858e5	-0.002568775
186	0xbcf623fd	-0.030046457
187	0x3c30c358	0.010788761
188	0xbc883c26	-0.016630244
189	0xbcc8b8e8	-0.024502233
190	0x3cdbdb55	0.026837984
191	0x3d0cd34e	0.034381203
192	0x3d19be30	0.037534893
193	0x3d099bba	0.033595778
194	0x3cfee5c8	0.031115428
195	0x3ce370bc	0.027763717
196	0x3c41a8ca	0.011820028
197	0x3c802f84	0.015647657
198	0xbb9e5ce5	-0.0048328512
199	0x3cc8c203	0.024506574
200	0xbca80cef	-0.02051398
201	0xbd06e9fd	-0.032937992
202	0xbcde929c	-0.027169518
203	0xbc0aaa71	-0.008463488
204	0x3cd26a5d	0.025685484
205	0x3c994790	0.018710881
206	0xbcd6386a	-0.026149947
207	0xbba46597	-0.0050169933
208	0xbca0fcd7	-0.019651813
209	0xbd1541dd	-0.036439765
210	0xbd1a06cb	-0.037604135
211	0x3cd80e43	0.026373988
212	0xbcf00592	-0.029299531
213	0x3c7ef8a7	0.015562213
214	0x3ce3cc0d	0.02780726
215	0x3ce3e168	0.027817443
216	0x3cb11dc1	0.021620633
217	0x3d11a7be	0.035560362
218	0x3ceb7ac2	0.028745059
219	0xbc83132b	-0.016000351
220	0xbcc489ef	-0.023991553
221	0xbcfb6163	-0.030686086
222	0xbcfbf1a5	-0.030754874
223	0x3d00b2d0	0.03142053
224	0x3cc32587	0.023821605
225	0x3d12750e	0.035756163
226	0x3c903de6	0.01760764
227	0xb9e0bf78	-0.00042867265
228	0x3d0a9eaa	0.03384272
229	0x3c467caf	0.012114688
230	0x3cc1d420	0.02366072
231	0xbae455ed	-0.0017420627
232	0xbc033c39	-0.008009964
233	0xbceaa18b	-0.028641483
234	0x3d0d40ca	0.034485616
235	0xbce194d6	-0.02753679
236	0x3b0ef123	0.002181121
237	0xbc252820	-0.010080367
238	0x3c4afb3c	0.0123890005
239	0x3cf2de0f	0.029646901
240	0xbd0df617	-0.034658518
241	0xbd08fe3c	-0.03344558
242	0xbc4847e5	-0.012224172
243	0xbc4ffec5	-0.012695019
244	0x3c190225	0.00933889
245	0xbcb1ff71	-0.02172825
246	0xbbd02e52	-0.006353178
247	0x3cee662a	0.02910145
248	0x3bff1e1b	0.0077855713
249	0x3b289e6e	0.0025729197
250	0xbcc5f5ad	-0.024164999
251	0xbcb4a1c5	-0.022049794
252	0x3c8dffb0	0.017333835
253	0x3c8397a9	0.016063528
254	0x3cf94559	0.030428575
255	0x3bc22b6d	0.005925587

bias f4 [64]
0	0xbba3f6a1	-0.0050037657
1	0x3cdedb73	0.02720425
2	0xbd06a508	-0.03287223
3	0x3d2d3e15	0.042295534
4	0xbc80ba82	-0.015713934
5	0xbad6b4e4	-0.0016380814
6	0x3cf2567a	0.02958225
7	0xbcd0b98e	-0.025479104
8	0xbc408a1e	-0.01175168
9	0xbc2fea41	-0.010737003
10	0xbcf3d55e	-0.029764827
11	0xbd1fd6e7	-0.039023306
12	0xbc39f400	-0.011349678
13	0xbd2c4f65	-0.042067904
14	0xbc9bb4f2	-0.01900718
15	0xbcb67b37	-0.02227555
16	0xbc047c17	-0.008086226
17	0xbd3373b2	-0.043811508
18	0x3c84553b	0.016153922
19	0xba4a3f0a	-0.0007715082
20	0x3be69dfa	0.0070378752
21	0x3d0a099f	0.03370058
22	0x3c08d289	0.008350977
23	0xbbc01c50	-0.00586275
24	0x3c7d2e87	0.0154529875
25	0xbcbca071	-0.023025723
26	0xbd2f017c	-0.042726025
27	0x3cc29b99	0.023755835
28	0x3bd1615b	0.0063897795
29	0xbc96c454	-0.018404163
30	0xbbd73ff7	-0.0065689045
31	0xbcfdd4af	-0.030985205
32	0xbd038426	-0.03210845
33	0xbc43682b	-0.011926691
34	0x3ca3a6c5	0.019976983
35	0x3d0e2fb6	0.03471347
36	0x3ce36551	0.027758272
37	0x3d158960	0.036507964
38	0x3ca33d79	0.019926773
39	0x3cf25239	0.029580222
40	0x3c1b859e	0.009492306
41	0xbcaaa5ad	-0.020830953
42	0x3c909462	0.01764888
43	0xbcd903c3	-0.026491052
44	0x3c72fc65	0.014830683
45	0xbc6b94bf	-0.014378726
46	0xbc1877c5	-0.009305899
47	0xbd03a67e	-0.0321412
48	0xbb95f53d	-0.004576354
49	0xbc187e4b	-0.009307454
50	0x3a428fda	0.0007421948
51	0x3ca07325	0.019586155
52	0x3c72f68b	0.014829288
53	0x3cb4b5ac	0.022059284
54	0x3af0b255	0.0018363694
55	0xbd2bbf96	-0.041930757
56	0xbbcf5b62	-0.0063280324
57	0x3c3c79b5	0.011503627
58	0xbc3f2d29	-0.011668482
59	0xbd06ad81	-0.03288031
60	0x3cd623e7	0.026140166
61	0x3cd7e533	0.026354408
62	0x3be03d8a	0.0068432735
63	0x3c926653	0.017871058

weight f4 [64, 1024]
0	0xbc548cbc	-0.012973007
1	0xbcba684e	-0.022754814
2	0x3c7a8b8e	0.0152920615
3	0x3cb9c2d2	0.022675905
4	0xbbb6ec4b	-0.0055823675
5	0xbc038748	-0.008027859
6	0xbd01cc5e	-0.03168904
7	0x3be040d9	0.006843668
8	0x3cbb645f	0.02287501
9	0x3cd2139d	0.025644118
10	0xbcadc806	-0.021213543
11	0xba8ecd33	-0.0010894894
12	0xbc1031b5	-0.008800914
13	0xbbbcb6ca	-0.005759095
14	0x3ba584ad	0.0050512166
15	0x3cf03e90	0.029326707
16	0x3bdbd151	0.006708302
17	0xbb29ea8b	-0.0025927152
18	0xbb7759a6	-0.0037742644
19	0x3cbf7b95	0.023374358
20	0x3c898add	0.016789848
21	0xbcbf7e22	-0.023375574
22	0x3cd97344	0.02654422
23	0x3c491358	0.012272678
24	0x3c8bf9f5	0.017086962
25	0xbc53a5d6	-0.012917956
26	0x3c7494e5	0.014928077
27	0x3ca702cf	0.020387081
28	0xbc81f875	-0.015865544
29	0xbc54ed23	-0.012995991
30	0xbcea1e9a	-0.028579045
31	0x3b7f60b4	0.0038967552
32	0x3b3afbfd	0.0028531544
33	0xbbe9cd8f	-0.0071351
34	0x3cf418a3	0.029796904
35	0x3b103778	0.0022005718
36	0xbc57b56f	-0.013165816
37	0x3d02d9fe	0.031946175
38	0x3c27fd74	0.010253299
39	0x3cd14d2d	0.025549496
40	0x3c6929a1	0.0142311165
41	0x3c41d105	0.011829619
42	0xbbdee162	-0.00680177
43	0xbcb16107	-0.021652712
44	0xbc940eb4	-0.018073417
45	0x3c23116e	0.009952886
46	0xbcd83ec4	-0.026397116
47	0xbafeb322	-0.0019432048
48	0x3b1f785c	0.0024333214
49	0xbb6fd844	-0.003659741
50	0x3ba8e70c	0.005154496
51	0xbcf70aa5	-0.030156443
52	0x3cd27f9c	0.025695615
53	0x3cd5f76e	0.02611896
54	0x3c85af68	0.016318992
55	0xbc046654	-0.008081038
56	0xbc88fb87	-0.0167215
57	0x3b9d533e	0.004801183
58	0x3ca5b339	0.020227062
59	0x3c78299c	0.015146639
60	0x3cfa2b04	0.03053809
61	0x3c80494b	0.015659949
62	0x3c0421ad	0.00806467
63	0xbcc38a37	-0.023869617
64	0x3b1bafaa	0.0023755827
65	0x3ced3f3b	0.028960815
66	0xbca26d22	-0.01982743
67	0xbcba8a78	-0.022771105
68	0x3cc622b7	0.024186475
69	0xbb4bd6e2	-0.0031103422
70	0x3ccf1630	0.025279135
71	0xb8035502	-3.1312004e-05
72	0x3c14a38b	0.009072195
73	0xbcc766ce	-0.024341013
74	0xbc8a4f3a	-0.016883481
75	0x3c92bacf	0.017911343
76	0xbc8201c9	-0.015869992
77	0xbc9eb919	-0.01937537
78	0xbcd2f2c0	-0.025750518
79	0x3cacdcb1	0.021101328
80	0x3c886fea	0.016654927
81	0xbc7080c4	-0.014679138
82	0xbabe3db7	-0.0014514242
83	0x3cc802ea	0.024415452
84	0x3adca85c	0.0016834843
85	0x3c90d2dc	0.01767867
86	0xba425ff4	-0.0007414811
87	0x3c8c2a17	0.017109914
88	0x3c8f9bf7	0.017530425
89	0x3c0cc47a	0.008591766
90	0x3c47e0ee	0.0121996235
91	0x3cbdf53f	0.023188232
92	0xbc15d0d5	-0.009144028
93	0x3cac4cae	0.021032657
94	0xbcd51d33	-0.0260149
95	0x3a6bc1f6	0.0008993441
96	0xbc8a6031	-0.01689157
97	0xbc7562d0	-0.014977172
98	0xbc881021	-0.016609253
99	0x3d06b2c9	0.032885347
100	0x3cd71516	0.026255172
101	0xbcd992af	-0.026559202
102	0xb9f5609e	-0.00046802027
103	0x3c4f91e5	0.012669061
104	0x3bddbdd9	0.0067670164
105	0x3c23723f	0.009975969
106	0x3c54de0f	0.012992396
107	0xbb9c9dfb	-0.004779575
108	0x3a89ff12	0.0010528287
109	0xbc9fe0ec	-0.01951643
110	0x3d0dd098	0.03462276
111	0xbcd24683	-0.025668388
112	0x3cbedab6	0.023297649
113	0xbcfea3b3	-0.031083917
114	0x3a2d4c06	0.00066107546
115	0x3c2262c7	0.009911246
116	0x3c3ce708	0.0115296915
117	0x3c714583	0.014726046
118	0x3c803d29	0.015654163
119	0x3ccf7cc7	0.025328053
120	0x3cbe37c7	0.023219956
121	0x3c3e814f	0.011627509
122	0xbba3a009	-0.004993443
123	0xbb9c6aeb	-0.004773488
124	0xbca3185d	-0.019909078
125	0xbc2c7838	-0.010526709
126	0xbc80ca8d	-0.015721584
127	0x3cb9a453	0.022661364
128	0xbbc624ab	-0.0060468516
129	0x3c896723	0.016772812
130	0x3c798e91	0.015231744
131	0x3a3ba8fe	0.00071586657
132	0xbcad28b9	-0.021137582
133	0xba67da91	-0.00088445196
134	0xbc2c9644	-0.010533873
135	0xbc330ed5	-0.010928829
136	0x3cca8922	0.024723593
137	0x3cf73be3	0.030179923
138	0xbbcc0d0e	-0.006227142
139	0x3bdc18d5	0.0067168274
140	0xbc906da1	-0.0176304
141	0xbcd08f44	-0.02545894
142	0xbc8ec966	-0.017430019
143	0x3b90e203	0.004421474
144	0x3c9bdbca	0.019025702
145	0x3bd38eec	0.0064562466
146	0xbcd8f9d5	-0.026486317
147	0xbbaa2352	-0.005192199
148	0xbb9712d9	-0.004610401
149	0xbbc1ac2b	-0.0059104166
150	0x3bc0d65b	0.005884928
151	0xbb44e74d	-0.0030045093
152	0x3c6b09de	0.014345614
153	0xbc833cdd	-0.016020233
154	0xbce3db42	-0.027814511
155	0xbd029392	-0.031879015
156	0xbc939cef	-0.018019168
157	0xbcc54d59	-0.024084734
158	0x3ce61318	0.028085276
159	0x3c3af8f1	0.011411891
160	0xbcecbbf3	-0.028898215
161	0x3cea3b4b	0.028592726
162	0xbb2b00aa	-0.0026092925
163	0xbcc1d7ab	-0.023662409
164	0xbc3ef024	-0.011653934
165	0xbcae0600	-0.021243095
166	0x3cb1f5c3	0.021723634
167	0xbbc1b20d	-0.005911118
168	0xbcd0995d	-0.025463754
169	0x3c130077	0.008972279
170	0x3c8884b4	0.01666484
171	0xbbac08ef	-0.0052500884
172	0x3cd57bd5	0.026060024
173	0xbc0f3ca6	-0.008742487
174	0x3cbae051	0.02281204
175	0xbce149f1	-0.027501078
176	0xbc778a3a	-0.015108639
177	0x3c5ec5db	0.013596977
178	0xbc2fa7ea	-0.010721186
179	0xbce7a0e9	-0.02827497
180	0x3ba5e4d8	0.0050626807
181	0xbcbf94c2	-0.023386363
182	0x3cc25063	0.023719972
183	0xbbfe04bb	-0.0077520288
184	0xbced30f0	-0.028954
185	0xbcbe7bf5	-0.023252467
186	0xbd0e654e	-0.03476458
187	0x3c6b577c	0.01436412
188	0xbc9b52f9	-0.018960463
189	0xbc1a7a3e	-0.009428559
190	0xbbb47e41	-0.0055082147
191	0xbcc9360b	-0.024561903
192	0x39bbfb50	0.00035854662
193	0x3c9a4ce9	0.018835502
194	0x3cac7ea2	0.021056477
195	0xbc753643	-0.01496655
196	0x3c8c4433	0.017122364
197	0x3cd07030	0.02544412
198	0x3cacfd55	0.021116892
199	0x3ae58829	0.0017511892
200	0xbc83c1d7	-0.016083641
201	0x3c223810	0.009901062
202	0x3cda33e9	0.02663608
203	0x3c970852	0.018436585
204	0xbbf81f88	-0.007572118
205	0x3ccb365a	0.02480619
206	0xbb346e8f	-0.0027531718
207	0x3cd1bb88	0.025602117
208	0xbb201e73	-0.0024432212
209	0xbd0c7494	-0.034290865
210	0x3a0ef510	0.0005453387
211	0x3c4631a9	0.012096801
212	0xbcff8028	-0.03118904
213	0xbc765787	-0.015035517
214	0xbce8a942	-0.02840102
215	0xbb28b240	-0.002574101
216	0x3c9ee5bb	0.019396653
217	0xbcf5aea9	-0.029990511
218	0xbc8b669c	-0.017016701
219	0x3cc5b881	0.02413583
220	0xbc05f82e	-0.008176846
221	0xbd088600	-0.033330917
222	0xbc6edb78	-0.014578693
223	0x3c316840	0.010828078
224	0xbb9f8c2c	-0.0048690047
225	0x3cafea21	0.021473946
226	0x3c0ca6a0	0.008584648
227	0xbcafa597	-0.021441264
228	0xbcbbfd68	-0.022947982
229	0x3bba3941	0.0056830947
230	0xbcba461e	-0.022738513
231	0x3ce6b398	0.028161809
232	0x3c9c9f96	0.019119065
233	0xbc10c280	-0.008835435
234	0x3c84c460	0.01620692
235	0xbc8e9fa2	-0.017410103
236	0xbca4a899	-0.020099925
237	0x3cc8af90	0.024497777
238	0x3cb293af	0.021798937
239	0x3ba9178c	0.0051602777
240	0x3c4e38c9	0.012586781
241	0x3ccfc188	0.025360838
242	0xbbc6fd91	-0.006072708
243	0xbcc8fa8e	-0.024533536
244	0x3ae8dfb1	0.001776686
245	0xbc92a6b2	-0.017901752
246	0xbc974d25	-0.018469403
247	0xbd07e270	-0.033174932
248	0x3c612486	0.013741618
249	0xbcab23b3	-0.020891046
250	0xbbdeffe3	-0.0068054064
251	0xbcb524b6	-0.022112232
252	0xbcf454b5	-0.029825548
253	0xbbebe365	-0.0071987384
254	0xbb2ab0de	-0.0026045362
255	0xbca3dad9	-0.020001816

bias f4 [64]
0	0xbc6c35fb	-0.014417167
1	0x3cc8c2ac	0.02450689
2	0xbc9214f8	-0.017832264
3	0xbbefe182	-0.007320584
4	0x3be3f31d	0.0069564716
5	0xbcff5782	-0.031169657
6	0x3995d64b	0.00028579155
7	0x3c192938	0.009348206
8	0xba965864	-0.0011470434
9	0x3bde8f17	0.00679196
10	0xbc5580fe	-0.013031242
11	0xbcc8626f	-0.024461
12	0xbafec435	-0.0019437136
13	0x3b3767a7	0.0027985366
14	0x3d017666	0.031607054
15	0xbb145db1	-0.0022638852
16	0xbb07dbce	-0.002073038
17	0xbd00bc37	-0.031429496
18	0xbc51692d	-0.0127814235
19	0xbc78efb1	-0.015193866
20	0xbc9e6dab	-0.019339403
21	0xba19f9df	-0.00058737205
22	0xbc4d95b6	-0.012547901
23	0x3c1de9ec	0.009638291
24	0x3c595546	0.01326496
25	0x3b1306c9	0.0022434464
26	0xbce2576d	-0.027629578
27	0x3cbbf161	0.022942247
28	0x3ce3ee5b	0.027823618
29	0x3c8e7062	0.017387573
30	0x3cc17208	0.023613945
31	0x3d1f5015	0.03889473
32	0xbbc6b037	-0.006063487
33	0xbbf55e2f	-0.007488034
34	0x3bb4a540	0.0055128634
35	0x3b81552b	0.0039469204
36	0x3b23eb55	0.0025012095
37	0x3bce63b9	0.006298509
38	0xbb68c414	-0.0035517262
39	0x3c5f981c	0.013647106
40	0x3c9d5a59	0.01920812
41	0xbc4cee1c	-0.012507942
42	0x3b343487	0.002749713
43	0xbbcfd76a	-0.006342818
44	0x3cff8f13	0.031196153
45	0xbba3f5c5	-0.0050036632
46	0x3ce80b86	0.028325807
47	0x3c90470a	0.017611999
48	0x3ca89ff9	0.020584093
49	0x3b95b7cd	0.00456903
50	0xbbf14e8e	-0.007364101
51	0x3cd8b04f	0.026451258
52	0x3c470c37	0.012148908
53	0x3abb13ab	0.0014272829
54	0xbcd049af	-0.02542576
55	0xbb97cef0	-0.004632823
56	0xbca13213	-0.019677198
57	0xbaf944b6	-0.001901767
58	0xbbca974d	-0.0061825872
59	0x3c84cb7a	0.016210306
60	0xbcfcf676	-0.03087924
61	0xbc9c3a4e	-0.01907077
62	0xbc20f366	-0.009823656
63	0xbb926cf7	-0.004468556

weight f4 [10, 64]
0	0xbdec21aa	-0.115298584
1	0x3d7e33b1	0.062061016
2	0xbda439d3	-0.080188416
3	0x3dc14966	0.09437828
4	0x3d8d0078	0.06884855
5	0x3dcccc00	0.099998474
6	0xbccbc32c	-0.024873339
7	0xbdccfc42	-0.10009052
8	0xbdbaad6d	-0.091151096
9	0x3dd13b5c	0.102164
10	0xbc79aba5	-0.015238677
11	0x3c297b08	0.010344274
12	0x3c5a5261	0.013325305
13	0xbdb0d9a6	-0.08635263
14	0xbdbbba8c	-0.0916644
15	0xbdda8c3d	-0.106712796
16	0xbd3b8b9b	-0.045787435
17	0x3d174294	0.03692873
18	0x3d4f4074	0.050598577
19	0xbd5905d0	-0.05298406
20	0xbe08dd72	-0.13365725
21	0xbd80a247	-0.06280952
22	0xbd686c98	-0.056744188
23	0xbd8950cb	-0.06704863
24	0xbcaee4b2	-0.021349285
25	0xbc198cb5	-0.009371926
26	0x3c6e3cd5	0.014540871
27	0x3dc3e5f1	0.09565342
28	0x3da5a4ab	0.080880485
29	0xbdbbea14	-0.09175506
30	0x3d06b726	0.032889508
31	0x3d079adc	0.03310667
32	0xbdbb7f0b	-0.09155091
33	0xbda291f0	-0.079379916
34	0x3e01d3d8	0.12678468
35	0xbdb38fba	-0.08767648
36	0x3dccc1ab	0.09997877
37	0x3e01f059	0.12689342
38	0x3d5ae81c	0.053444013
39	0x3d22965f	0.039694186
40	0xbcf8599f	-0.030316172
41	0x3c77126c	0.015080076
42	0x3d03fadd	0.032221664
43	0xbd078fbc	-0.03309606
44	0xbde7117a	-0.1128263
45	0x3db8bd54	0.090204865
46	0x3d53d9ab	0.051721256
47	0xbd001a28	-0.031274945
48	0x3d81f45b	0.06345435
49	0x3d6acaa1	0.05732215
50	0xbe04b7f4	-0.12960798
51	0x3c90fe0c	0.017699264
52	0xbdd68360	-0.104742765
53	0x3d5a80a0	0.053345323
54	0x3dbef1be	0.093234524
55	0x3df36b7d	0.11885736
56	0x3c13c587	0.009019262
57	0xbddb4595	-0.10706631
58	0x3d4d47b8	0.050117224
59	0x3bbf9051	0.0058460613
60	0x3c85c83f	0.016330836
61	0x3cd6db44	0.0262276
62	0x3dc95f4c	0.098326296
63	0x3c6fbb1f	0.0146320155
64	0xbda439da	-0.08018847
65	0xbd9cfe57	-0.07665699
66	0xbcc59e2c	-0.024123274
67	0x3d04dd34	0.03243752
68	0xbd99970e	-0.074995145
69	0xbd43d97b	-0.047814827
70	0xbdf18213	-0.11792388
71	0x3da35794	0.079756886
72	0xbd13bffc	-0.036071762
73	0x3d994f1a	0.074857906
74	0xbc92dcd3	-0.017927563
75	0xbd88c8c5	-0.06678919
76	0xbd93da71	-0.07219399
77	0xbd7c5823	-0.06160749
78	0xbdd98377	-0.10620778
79	0x3d040cad	0.03223865
80	0xbe16879d	-0.1470017
81	0xbdfb0c17	-0.12258165
82	0x3d8bd033	0.0682682
83	0x3da0231f	0.07819199
84	0x3df40f44	0.11916974
85	0xbe0d7efb	-0.1381797
86	0xbb941e11	-0.0045201858
87	0x3e13cb26	0.14432964
88	0xbd29fa35	-0.04149838
89	0xbdae2c1a	-0.085045055
90	0x3e0ad090	0.13556123
91	0x3d91ef75	0.07125751
92	0x3d15d762	0.03658236
93	0xbe03548c	-0.12825221
94	0x3cc7d428	0.024393156
95	0x3d504446	0.05084636
96	0xbdedd8a4	-0.116135865
97	0x3dc76a25	0.09737042
98	0xbdc43f6c	-0.09582409
99	0x3d857192	0.065158024
100	0xbaee87ba	-0.0018198409
101	0xbdd25a51	-0.10271133
102	0xbda0075b	-0.07813903
103	0x3dcc8ca3	0.09987762
104	0xbd3ba3be	-0.045810454
105	0x3d8b27e7	0.0679472
106	0x3d0ad113	0.033890795
107	0x3e017d9b	0.12645571
108	0xbdd54833	-0.104141615
109	0xbd77c4d5	-0.060490448
110	0x3c03df6e	0.008048875
111	0x3e25f6ea	0.16207471
112	0x3ceceae8	0.028920606
113	0xbb657219	-0.0035010634
114	0xbdb9393e	-0.09044121
115	0x3d08fe0b	0.0334454
116	0xbdd345b2	-0.10316028
117	0xbc1a50a1	-0.0094186375
118	0x3e0a7dce	0.13524553
119	0xbd686e05	-0.056745548
120	0xbd1e475f	-0.038642284
121	0xbd8883b3	-0.06665745
122	0xbdcb205e	-0.09918283
123	0xbd1d21b2	-0.038362212
124	0x3db917e3	0.09037759
125	0x3bda31f8	0.006658789
126	0xbdd67ea2	-0.10473372
127	0xbd37d16c	-0.044877455
128	0x3dca5352	0.09879173
129	0x3da1021a	0.07861729
130	0x3dec657e	0.115427956
131	0xbcf06143	-0.029343253
132	0xbd5b2c96	-0.053509317
133	0xbd03ac09	-0.032146487
134	0x3daf7530	0.085672736
135	0x3db857cf	0.09001123
136	0x3d8a5eac	0.067563385
137	0xbce70a94	-0.028203286
138	0xbd27088e	-0.040779643
139	0xbd2255b5	-0.039632518
140	0x3dfb603a	0.12274213
141	0x3d8f05b1	0.069835074
142	0xbd52e91d	-0.051491845
143	0xbdebe6ff	-0.115186684
144	0xbd76abb7	-0.060222354
145	0x3d7a038b	0.061038535
146	0xbcea26c2	-0.028582934
147	0x3da3f762	0.08006169
148	0xbdde7056	-0.1086127
149	0x3d5f41f0	0.054506242
150	0xbce384f5	-0.02777336
151	0x3dd656fb	0.10465809
152	0x3d96e2fe	0.07367514
153	0x3b10ab7e	0.0022074874
154	0xbdf9d1d5	-0.121982254
155	0xbc96edea	-0.018423993
156	0xbbdbb490	-0.0067048743
157	0x3d48dba5	0.049037594
158	0x3d87f605	0.066387214
159	0xbd0e9da8	-0.03481832
160	0x3da17e35	0.078854
161	0x3da73137	0.08163684
162	0xbd86297e	-0.06550883
163	0x3dca2500	0.098703384
164	0xbdf4cef2	-0.11953534
165	0x3d791557	0.060811367
166	0x3dfbdc49	0.122978754
167	0xbd27beb3	-0.04095335
168	0x3d289592	0.041158266
169	0xbddf58f4	-0.10905638
170	0x3d052aa8	0.032511383
171	0xbdd9cebc	-0.106351346
172	0xbd0ffd58	-0.035153717
173	0x3d5f4801	0.054512028
174	0x3dd5776c	0.104231685
175	0xbcb91b06	-0.022595894
176	0x3df1797c	0.117907494
177	0x3ce8dc3a	0.028425325
178	0xbd869929	-0.06572182
179	0x3b8b7884	0.00425631
180	0xbc41e010	-0.011833206
181	0xbd05cc66	-0.032665633
182	0xbd9490fb	-0.07254215
183	0x3d162caf	0.036663707
184	0x3dd9f02e	0.10641514
185	0xb999ddbc	-0.0002934764
186	0xbd8e3567	-0.069437794
187	0x3d01addc	0.031659946
188	0x3d622d6f	0.05521911
189	0xbd225e74	-0.03964086
190	0xbc320f26	-0.0108678695
191	0x3da46bc1	0.08028365
192	0xbd56a28a	-0.052401103
193	0xbd495481	-0.049152855
194	0xbdaf4ca7	-0.08559542
195	0xbcb60217	-0.022217793
196	0xbc513187	-0.012768156
197	0xbd90fd6e	-0.07079588
198	0xbcc46dd8	-0.023978159
199	0xbd5d9500	-0.054097176
200	0xbd27dc81	-0.040981773
201	0xbd2ce103	-0.042206775
202	0x3d1038d7	0.035210457
203	0xbda3cb48	-0.07997757
204	0xbd93fe13	-0.07226195
205	0xbdd7708b	-0.10519513
206	0x3dd69035	0.10476724
207	0xbde30214	-0.11084381
208	0x3d5c899a	0.053842165
209	0x3d19b7f1	0.037528936
210	0xbd71dd4e	-0.059048943
211	0xbce1201d	-0.027481133
212	0x3d9d709e	0.07687496
213	0x3d13c094	0.03607233
214	0xbdf96647	-0.12177711
215	0xbd690933	-0.05689354
216	0x3aaaca0a	0.0013030183
217	0xbdb3761f	-0.08762764
218	0x3ddd25bc	0.10798213
219	0x3cf13151	0.029442461
220	0x3ca55d35	0.020186046
221	0x3da55c0c	0.08074197
222	0xbd4f7352	-0.050647087
223	0xbc5525cb	-0.013009499
224	0xbdd5fab9	-0.10448212
225	0x3b28bb5a	0.0025746436
226	0x3d918ac5	0.07106546
227	0xbce90fd7	-0.028449936
228	0x3dda9043	0.10672047
229	0xbb9264b9	-0.0044675735
230	0xbda7d619	-0.08195133
231	0xbdd8fe7d	-0.10595415
232	0xbcf05556	-0.029337566
233	0xbc964fbc	-0.018348567
234	0x3da8d7d8	0.08244294
235	0x3dd7ae01	0.105312355
236	0x3dde24b9	0.10846848
237	0xbda81c50	-0.08208525
238	0x3dc6bacb	0.09703597
239	0xbe0d341c	-0.1378941
240	0xbd8872a7	-0.06662493
241	0xbdea582f	-0.11442601
242	0x3c6fb9ff	0.014631747
243	0x3dc04d54	0.09389749
244	0xbd51ebd6	-0.0512503
245	0xbe0a5201	-0.13507845
246	0xbda3641a	-0.07978077
247	0x3df81fa5	0.12115411
248	0xbd30da9f	-0.043177243
249	0x3dab4922	0.08363558
250	0x3c319e2e	0.010840936
251	0x3acf2242	0.0015803056
252	0xbdfb52d8	-0.122716606
253	0xbce741d2	-0.028229628
254	0xbde54b48	-0.111959994
255	0xbe0d4c3e	-0.13798615

bias f4 [10]
0	0xbd27e95b	-0.04099403
1	0x3e0f9745	0.14022548
2	0xbde08e78	-0.10964674
3	0x3cc381e0	0.02386564
4	0xbd1d9189	-0.03846887
5	0xbdb9f665	-0.09080199
6	0x3d61b9e2	0.055108912
7	0xbd8755ae	-0.06608139
8	0xbe375d6c	-0.17906731
9	0x3d0286f1	0.03186697
