tudui_5.pth (torch, 587399 bytes, 10 tensors)

weight f4 [32, 3, 5, 5]
000000 61 7e 1d 3c b7 ac ac 3d 71 d4 3a bd 43 e9 d1 3d
       0.009612651 0.0843138 -0.045612756 0.10249569
000010 8e a2 ba 3d 73 20 62 bd ab f0 0e be 54 42 92 bb
       0.09113036 -0.055206727 -0.13958995 -0.0044634733
000020 61 6d a2 3d 3a a8 72 3c f3 27 42 bb d4 b7 0a be
       0.079310186 0.014810616 -0.0029625862 -0.13546687
000030 40 d3 e1 bc 98 aa a0 bd 78 89 00 3d c0 2f dd bd
       -0.027566552 -0.07845038 0.0313811 -0.10800123
000040 46 63 75 3d 48 35 40 bc e2 f5 f6 3d 95 66 14 3e
       0.059909128 -0.011731453 0.12058617 0.14492257
000050 44 30 24 bd be 58 41 bd f2 97 df bc 65 8c a2 3b
       -0.040085092 -0.04720377 -0.027294133 0.004960584
000060 02 d4 cf 3d e7 d5 56 3c 7d d7 91 3d 4c 54 1b be
       0.10147859 0.013112522 0.07121179 -0.15168875
000070 46 00 b6 bd 52 d1 9d bd e1 66 e9 bc 75 7f 05 be
       -0.08886771 -0.0770594 -0.02849144 -0.13036902
000080 17 08 3e be 69 bc 01 be 90 61 11 be 52 2d e7 bd
       -0.18557774 -0.12669529 -0.14197373 -0.11287941
000090 8e a4 00 be 72 38 39 bd 9d 49 a3 bc 5a f8 84 bd
       -0.12562773 -0.045219846 -0.019932562 -0.06492682
0000a0 bc a3 e3 bd 09 87 fe bd 2b f8 9e bd c2 6f 08 3b
       -0.11115214 -0.124281 -0.07762178 0.0020818566
0000b0 bf 54 76 3d 6b 42 f2 3d aa 4f 82 3d 5c 20 1f 3e
       0.060139414 0.118290745 0.06362851 0.15539688
0000c0 4c c2 1c 3e c1 43 04 3e 9f 95 9b bc da 36 d3 bd
       0.15308493 0.12916471 -0.018992243 -0.103131965
0000d0 1b 0a c4 bd bb f5 c8 3c 1f b8 2a bd bb 78 06 be
       -0.0957224 0.024531236 -0.041679498 -0.13131993
0000e0 6e fc 06 3d 38 5a 01 be 23 29 11 be d8 d2 d5 bd
       0.03295558 -0.12632072 -0.14175849 -0.10440606
0000f0 51 6f f8 bd 7f be 96 bc b0 9a 03 bd 12 1c a3 bd
       -0.12130607 -0.018401382 -0.032129943 -0.07964338
000100 da 34 ed bd c2 e5 b3 bd 65 35 21 3d f8 2f a4 bd
       -0.11582346 -0.08784057 0.03935756 -0.08016962
000110 80 d2 42 bd c0 ea d6 3d 4b 86 c9 bd 0c 66 44 bc
       -0.04756403 0.10493994 -0.098400675 -0.0119872205
000120 9d 17 0f 3e ee ad 22 3e f6 e8 eb 3d be 37 f0 bd
       0.13973852 0.15886661 0.11519043 -0.11729382
000130 e6 fa 81 3d 52 65 03 3e d6 de a9 bd 76 70 dc bd
       0.06346683 0.1283162 -0.08294456 -0.10763638
000140 bc a2 d2 3d c6 70 a5 bc 55 dc 2e bb 09 a3 3a bc
       0.10284945 -0.020195376 -0.002668162 -0.01139141
000150 73 7a 98 bd e5 29 15 3d e2 57 b1 3d f4 7e 05 3e
       -0.0744523 0.036416907 0.086593404 0.1303671
000160 e9 af 94 3c b4 ef 79 bd 26 ab 0a bc f8 bd 2e bd
       0.018150287 -0.061019614 -0.0084636565 -0.042661637
000170 7a 10 e2 3d 1c 96 24 3d d4 c6 e0 3c 2b 58 1a bd
       0.11038299 0.040182218 0.027438559 -0.03768174
000180 b6 a5 b2 3d 91 61 ac 3d 0c e0 b9 3c 4f a4 83 3d
       0.08723013 0.08417047 0.022689842 0.06427824
000190 30 b1 76 3d 48 78 51 bd f8 da aa bc 3e f6 17 3d
       0.060227573 -0.0511401 -0.020856366 0.03710007
0001a0 94 38 ea bc 1b 5c 82 bd 3e 81 e5 3b 9a ee 3f bd
       -0.028591432 -0.06365224 0.0070039323 -0.046858408
0001b0 45 ac 93 3d 0a 16 3a 3d d5 e6 2f bd 32 55 08 bc
       0.07210592 0.045431174 -0.042944748 -0.008321093
0001c0 8e 93 b0 3c ac 2c d9 3c 88 73 94 bd 82 3c c4 bd
       0.021554735 0.026510559 -0.07248598 -0.095818534
0001d0 7d 37 f6 bd 8a a5 a3 bc e0 c4 67 bc 9a 81 4a 3d
       -0.12022302 -0.019976396 -0.01414606 0.049440004
0001e0 cf a5 10 bc ec cc e7 bd d2 3d 1e 3a 39 61 cb 3d
       -0.008828594 -0.113183826 0.00060364336 0.09930653
0001f0 d7 4b b1 bc d8 f0 08 be 2f a3 0a bc 05 78 2a 3d
       -0.021642609 -0.13373125 -0.008461758 0.041618366
000200 c3 e6 fa bd 63 f1 95 bc fa 7a 24 bd b5 58 bf bd
       -0.122510456 -0.018303579 -0.040156342 -0.093430914
000210 10 52 93 bd 9d 84 b4 3d 2a 3b 0a be f6 51 a6 bd
       -0.071933866 0.088143565 -0.13499132 -0.081211016
000220 d5 23 0d bd d9 59 6d 3d 2a 14 26 3b c8 a2 a3 bc
       -0.034458 0.057947014 0.0025341609 -0.019975081
000230 2a 68 00 be 86 e1 a0 3d 1f 40 0c 3d e3 34 a6 3b
       -0.12539735 0.07855515 0.03424084 0.0050722226
000240 ea 3b a8 bd 86 98 a0 3d c7 b1 c3 3d 4b 97 39 3d
       -0.08214553 0.078415915 0.09555393 0.0453103
000250 42 e6 47 bd 37 41 67 3d b8 f5 94 bc 34 cd 02 3e
       -0.048803575 0.056458678 -0.018183574 0.12773591
000260 3d f6 7d bd 2c a4 ec bd 7f ea 31 bd d4 a7 f8 3d
       -0.06200241 -0.11554751 -0.043436524 0.12141386
000270 d9 3a 1d 3e 60 c1 27 bd 3c 27 05 3d 7d 43 bc bd
       0.1535448 -0.0409559 0.03250812 -0.0919256
000280 d7 64 8e 3d f4 93 29 3e 2a 73 22 3d 0c e4 d5 bd
       0.069528274 0.16560346 0.03966061 -0.10443887
000290 9b 50 51 3d d8 e8 33 3e 19 94 15 3e 9f 82 29 3d
       0.051102262 0.17569292 0.14607276 0.041384336
0002a0 1a f8 c5 3d 2e 55 49 bd 69 24 bc 3d 7a 42 36 bd
       0.09666462 -0.0491535 0.09186632 -0.04449699
0002b0 4d d9 23 3c da 03 18 bd 2a cc c0 3d fa 8a a4 3d
       0.010000539 -0.037113048 0.09413941 0.0803432
0002c0 78 57 7d bc f4 37 00 bd 85 c9 db bc 6f 82 28 be
       -0.015462749 -0.03130336 -0.02682949 -0.16456006
0002d0 d5 a2 00 3e 9c 69 ce 3d 0f e6 d1 bd 85 50 54 bb
       0.12562115 0.10078737 -0.10248958 -0.0032396626
0002e0 c2 25 68 bd f7 d3 8f bc f0 85 90 3d ea e0 e2 bd
       -0.056676634 -0.017557127 0.070567966 -0.11078055
0002f0 02 ba 7e bd 82 f0 8f bd 87 27 ea 3d 35 00 7b bd
       -0.06218911 -0.07028295 0.114333205 -0.061279494
000300 c8 f8 ce bd e0 b0 33 3d b1 0b d2 3d dc 74 82 bd
       -0.10106045 0.043869853 0.10256136 -0.063699454
000310 dc a9 03 3e 24 86 5a 3d c4 b9 8b bd 84 e7 8a 3c
       0.12857765 0.053350583 -0.06822541 0.016956098
000320 c0 a2 d4 bd 69 91 6e bd 0f 96 59 3d 1e 0c 56 bc
       -0.103826046 -0.058244143 0.053121623 -0.013064412
000330 57 2f a4 bd 74 50 ae 3d a6 6b e1 bb e7 1f fd bd
       -0.08016842 0.08511439 -0.006879288 -0.123596005
000340 d6 05 b3 bc 63 1e 0d be 18 6a 8a bd 0c fa 9f 3d
       -0.021853369 -0.13781123 -0.06758517 0.078113645
000350 37 5d 1d bd 08 b5 67 3d e1 97 1b bd 7a 81 06 3d
       -0.038418975 0.05656913 -0.03798664 0.032838322
000360 c7 aa 2c 3d 3e 2f b6 bd 9d 9c 15 bd 21 b6 7b bd
       0.042155053 -0.088957295 -0.03652631 -0.06145299
000370 ac 7a 71 bd 5d 3d a7 3d 1c 28 e7 bd fa 66 bd bc
       -0.05895488 0.08166001 -0.11286947 -0.023120392
000380 c1 c8 c8 bd 0d fd 19 be 1e fd 13 be 11 46 60 bd
       -0.09803916 -0.15037937 -0.14452025 -0.05475432
000390 c4 94 51 3c fd 76 04 be 9e 04 cc bc c2 98 0c be
       0.012791816 -0.12936015 -0.024904545 -0.13730147
0003a0 01 63 8d bd 21 43 2e be c5 82 21 bd 97 8f 98 bd
       -0.06903649 -0.17017795 -0.039431352 -0.074492626
0003b0 ad 67 68 bd 04 80 37 bc a0 6c 01 bd 86 d7 6d 3b
       -0.056739498 -0.011199955 -0.031597733 0.0036291792
0003c0 65 8b a2 3c b6 41 57 3d 90 a0 a2 bd 42 b9 99 3c
       0.01984186 0.0525529 -0.07940781 0.018765096
0003d0 53 f1 b7 bd 9b 12 c4 3d 7e c9 99 bd 53 09 67 3c
       -0.08981576 0.09573861 -0.07509135 0.014101344
0003e0 81 b8 26 bc 58 95 bd 3a 79 87 ad ba 3e b0 84 bd
       -0.010175825 0.0014464064 -0.0013239227 -0.06478928
0003f0 4c 76 7b bd cc 62 32 bd 38 a2 82 3d 76 68 d6 bc
       -0.061392114 -0.04355125 0.06378597 -0.026172858

bias f4 [32]
000000 cc 43 4c 3e 3b ca f6 3c 71 73 b9 bd 1a 01 b9 3c
       0.19947737 0.030125728 -0.09055222 0.022583533
000010 78 f5 74 3e aa f6 ce bd e2 70 57 be 8e aa 31 bc
       0.23921764 -0.10105641 -0.21039155 -0.010843886
000020 39 a8 08 be 29 c2 10 be 18 90 c7 be f3 79 4e 3e
       -0.13345422 -0.14136566 -0.38977122 0.20163707
000030 92 1c 29 bd d5 40 b3 3c c4 50 55 3d 4b 27 2d be
       -0.041287012 0.0218815 0.052078977 -0.1690952
000040 f2 0b 32 3e 08 02 07 3d cd bc 41 bd 7c 0d 3f 3e
       0.1738737 0.03296092 -0.047299195 0.18657488
000050 b1 32 07 bc a5 4d 8c bd 9c 71 e8 bd 6f d2 78 3e
       -0.008251832 -0.06850747 -0.11349794 0.24299024
000060 ff 50 cf bc 31 53 70 3d a1 91 e6 ba e4 86 2b bc
       -0.025307177 0.058673088 -0.0017591008 -0.010469172
000070 27 ea 01 be 28 b6 13 be bd 1b 2f be 1b 65 95 bd
       -0.12686978 -0.14424956 -0.17100425 -0.07294675

weight f4 [32, 32, 5, 5]
000000 27 4e 08 3c de 0c d1 3c bc 6d ef bc 4a fb 35 bc
       0.008319414 0.02551883 -0.02922713 -0.011107275
000010 5c d2 b4 3a 40 5f 8d 3c b3 cc 9d 3c fe 53 04 3c
       0.0013795602 0.017257333 0.019262647 0.008076666
000020 9a 9e c7 bc a6 0d a9 bc cf 58 ed bc ae fb 8e 3c
       -0.02436762 -0.02063639 -0.028973011 0.017453995
000030 ab fe 55 bc 37 2d 0e 3d 63 68 79 3c 10 83 dc bc
       -0.013061206 0.03471109 0.015222642 -0.026917964
000040 ee 91 6a 3b 12 e2 83 3c be e7 2d 3d f3 fc 22 3d
       0.0035792547 0.01609901 0.042457335 0.039792012
000050 df ef 6c 3c 9a de 0d 3d 95 5e d5 bb 58 3a 91 3c
       0.014461487 0.034636118 -0.006511519 0.017728016
000060 7c 98 04 3c c8 e0 25 3d 2b f8 ad 3c cf da e7 3c
       0.008092996 0.04049757 0.0212365 0.028302578
000070 c2 fd 36 bc 99 a3 d8 3c ee 87 27 3c 6d eb b1 39
       -0.011168899 0.026445197 0.010225279 0.00033935477
000080 86 d0 51 3c 10 1c 3a bc 99 aa b5 bc e7 68 26 bc
       0.0128060635 -0.01135923 -0.022176074 -0.010156847
000090 ce 1d ec 3c df 67 79 3c 25 0d 5e bb 31 84 6b 3b
       0.028822806 0.015222519 -0.0033882346 0.0035936947
0000a0 19 e6 d4 3b df 71 25 3d 63 6a e4 3c 58 14 00 3d
       0.0064971563 0.0403918 0.02788276 0.0312694
0000b0 3c 4e 27 3d 74 f0 cc 3c 2b f4 80 3c 35 42 c9 3c
       0.040846094 0.025017 0.015741428 0.024567703
0000c0 9f d5 da 3c 95 41 a3 bb 0d cb 7a bc fd d2 a4 3c
       0.02671319 -0.004982183 -0.0153072 0.020120138
0000d0 cb 7e 72 3c 42 32 c1 bc 5c 9b c0 bc d9 9d ba 3b
       0.014800738 -0.023583535 -0.023511581 0.0056950864
0000e0 a3 74 d3 3c 12 be c2 3c 3c d3 33 3c ed fe 10 bb
       0.025812453 0.023772273 0.010975655 -0.0022124604
0000f0 bf fc 12 3d 92 a2 b2 bb 13 76 1f bb 1e 8b 39 3d
       0.03588557 -0.005451509 -0.0024331852 0.045298688
000100 2b 84 4b bb 2d 22 f9 3c 7a 3b 3d 3d a9 ef 28 3c
       -0.003105412 0.030411804 0.0461993 0.010311046
000110 a4 3d 96 3b 54 59 69 ba 61 f0 93 3c c4 63 40 bc
       0.004584985 -0.00089015556 0.018058958 -0.011742536
000120 3a dd 21 3d 2b b4 bd bc 5b 73 75 3c df 5a d9 3c
       0.03951762 -0.0231572 0.014981116 0.026532589
000130 33 18 25 bc 1b 0f 8f 3b b6 1c 1c 3d 53 6b 60 3b
       -0.01007657 0.0043658144 0.03811332 0.0034243658
000140 e9 c0 d1 bc a4 cb d8 3c d0 14 ce bc e5 81 bf 3c
       -0.025604682 0.02646429 -0.025156409 0.023377368
000150 c2 80 06 3d 66 05 3a bc 07 f8 d3 3b 0c b0 8e bc
       0.032837637 -0.011353826 0.006468776 -0.01741793
000160 cc 9e 8d 3c a4 dc a4 bb b3 e0 8d 3c 6a e1 26 bd
       0.017287634 -0.005031185 0.017319059 -0.040742315
000170 cb f5 d1 3c 29 44 84 bc 99 ae e4 3c af 4f 6f bb
       0.025629899 -0.016145783 0.027915286 -0.0036516
000180 8c a4 d8 bc 4e 6c 25 bc 11 dd 84 3b a8 85 02 3c
       -0.02644565 -0.010096623 0.0040546735 0.007966436
000190 21 f1 89 bb ed a0 2d bb 2e 9c d5 3b c7 f6 a8 bc
       -0.004209653 -0.0026493624 0.006518862 -0.020625485
0001a0 da e0 d8 3c d2 2d d7 bc f4 67 3b bc e1 5f 1c bd
       0.026474405 -0.026266966 -0.011438359 -0.038177375
0001b0 f0 7f 6d 3b 9b 41 0d bc b8 d7 56 bc 57 33 15 3c
       0.0036239587 -0.008621599 -0.013112955 0.009106479
0001c0 7a 4a d7 bb 45 21 1e 3d be b1 cd bc 91 2f 9e bc
       -0.0065701576 0.038605947 -0.025109168 -0.01930979
0001d0 7d 08 25 bc 2f 10 a3 3c 65 03 bc bc 0f 6d b9 3c
       -0.010072825 0.019905178 -0.022950837 0.022635011
0001e0 8e 19 b5 bc c6 8b 7f bc e6 c5 d5 3c 59 11 bb bb
       -0.022106912 -0.015597289 0.026095342 -0.005708855
0001f0 27 17 57 bc 4d 12 ab ba 11 da 96 3c 2f d2 40 3d
       -0.013128079 -0.0013051719 0.018414529 0.047075447
000200 25 34 3c bc 68 1a 52 bb ac 2d e2 bc 24 76 81 bb
       -0.011487042 -0.0032059196 -0.027609669 -0.003950851
000210 c4 ee 6f 3c e1 86 45 bb 03 af e2 bc b1 a8 c4 bc
       0.0146443285 -0.0030140209 -0.027671343 -0.02400622
000220 1b 8a e1 bb e2 96 9c bc 90 98 d1 bb 50 74 89 bb
       -0.0068829185 -0.019114915 -0.0063963607 -0.0041947737
000230 37 66 d0 3b a0 75 90 bc 34 07 af 3c a9 6c 2a 3d
       0.006359841 -0.017634213 0.02136574 0.041607533
000240 df 69 b9 bb ba 3a 03 bb d4 b4 c4 3b bc ec e5 bb
       -0.005658373 -0.0020024017 0.0060030017 -0.0070167463
000250 9e e3 01 3d 51 6a 0f 3d 40 75 e4 bc 71 fe f2 bc
       0.031711213 0.0350135 -0.02788794 -0.029662343
000260 a0 dc b3 3c 2a ff 2b 3d 48 17 96 bc 7d c0 2f 3d
       0.021955788 0.04199139 -0.018321648 0.04290818
000270 5c 39 b3 3b 32 1f 04 3d 7d 67 d7 3c fb 04 2b 3d
       0.0054694843 0.032256313 0.026294464 0.041752797
000280 b8 03 36 3d 37 3a 90 bc 87 3a d7 3b 3f f3 9f 3a
       0.04443714 -0.017605884 0.0065682563 0.001220323
000290 df f3 5e 3c fa 2a c8 3c 77 96 b0 ba b0 67 00 3d
       0.013607948 0.024434555 -0.0013472576 0.031348884
0002a0 4e 24 ec 3b 6a 09 44 3d 70 de 84 bc 8b 58 63 bc
       0.0072064763 0.04786054 -0.016219348 -0.013876091
0002b0 39 85 b0 bc 60 b5 e5 3b 76 c8 8c 3c 2d b3 fc bc
       -0.0215479 0.007010147 0.017185431 -0.030847156
0002c0 c2 9a 0f 3c c9 5a be 3c 41 be 8f bc d6 9f eb 3b
       0.0087649245 0.02323665 -0.017546775 0.007190685
0002d0 4c 7b de bc b2 d6 33 bc e6 29 27 3b 19 4e ad ba
       -0.027158402 -0.01097648 0.002550715 -0.0013222127
0002e0 64 5a 13 3b 94 37 8a 3c a5 c9 04 3d fa 2a d7 3c
       0.0022484297 0.016872205 0.032418866 0.02626561
0002f0 e6 e5 1c 3d 71 c7 5e bc 8a 66 4e 3d 4d 3b c8 3b
       0.038305186 -0.013597355 0.050390758 0.006110585
000300 11 ed 6e bc a3 ed 19 3d c5 7c 4a bc 31 11 84 3b
       -0.014582888 0.037580144 -0.012358849 0.0040303697
000310 9f 40 0a 3d 06 3b 38 3d 16 e5 f1 3c 9d 65 1c 3d
       0.033753034 0.044978164 0.029528182 0.038182843
000320 ae e7 3e 3b 89 88 e5 3c 5c 40 21 3d 63 89 35 3d
       0.002912979 0.028019207 0.03936802 0.044320475
000330 96 1a 78 bc 22 b5 ab 3c 2a b9 6b 3c a8 b0 a5 3c
       -0.015143057 0.020960394 0.014387408 0.020225838
000340 fc 27 04 3d d8 87 11 bb ce d0 7d bb 06 ec 69 bc
       0.032264695 -0.0022206213 -0.0038729194 -0.014277464
000350 32 e5 2e 3c 79 50 25 3d d4 8a 7f bb a3 75 90 39
       0.010674762 0.040359948 -0.003899266 0.00027553466
000360 20 a2 49 bc fa 65 ce bb 30 80 da 3c 85 d2 82 bc
       -0.01230672 -0.0062987776 0.026672453 -0.015969524
000370 f0 a8 a7 ba 06 d4 11 3d 3a f3 20 3d 17 3f 0f 3d
       -0.0012791436 0.035602592 0.03929446 0.034972277
000380 1b d2 e6 bc 87 c9 67 3c 96 d2 19 bc 8c f7 23 bc
       -0.028176358 0.014147169 -0.0093885865 -0.01000775
000390 24 b7 c7 3c 61 c9 a5 bc 5a 87 09 bd 70 3f 36 bc
       0.02437932 -0.020237627 -0.033576347 -0.011123523
0003a0 6d 7e e3 3a 29 5d 1b bd b2 a5 79 b8 b4 04 c1 bc
       0.0017356403 -0.03793064 -5.9520542e-05 -0.023561813
0003b0 48 00 25 3d bd ed 07 3d 14 36 a5 3b 6f 77 2e 3d
       0.04028347 0.03318571 0.005041847 0.04259437
0003c0 d1 39 13 3d 15 18 28 bc 63 5d fa 3b 9e 09 09 3d
       0.03594381 -0.010259648 0.007640527 0.033456437
0003d0 cc 4c f1 3c 95 4c 76 bc 0d ca ea 3a 02 8e cd 3b
       0.029455565 -0.015032907 0.0017912999 0.006273032
0003e0 b4 ea 17 3d f4 cd df 3c 37 69 7d 3c e7 c7 a7 bc
       0.037089065 0.027319886 0.01546698 -0.020481063
0003f0 93 20 ff 3c ec 0a a5 39 2e d1 2b 3d fe 2a 38 3d
       0.031143462 0.0003147939 0.041947536 0.044962876

bias f4 [32]
000000 6b 25 17 bd 73 55 5d bd 92 b6 68 3c 28 1c 2a 3d
       -0.03690092 -0.05403657 0.014203684 0.04153076
000010 09 f9 88 3d b5 7d 0c 3c 25 ba f5 bc 3e 4d c1 bd
       0.06688125 0.008574893 -0.029995987 -0.09438561
000020 13 7d e7 bc f9 36 f5 bd 17 c9 e6 3b 25 bd b0 ba
       -0.028257882 -0.11973376 0.0070430147 -0.0013484104
000030 06 26 bc bc 20 f7 bd 3c 76 fd 2d bc 07 29 81 3d
       -0.02296735 0.023189127 -0.010619512 0.063066535
000040 5a 0f 22 3d 39 c5 f4 bc e9 97 28 3c d2 97 0f bd
       0.03956542 -0.0298792 0.010290124 -0.035056897
000050 3e e4 ff bd 11 29 95 3c 7a ab 87 bd bc 36 d2 3b
       -0.124947056 0.018208059 -0.066245034 0.0064152163
000060 67 48 55 bd 19 13 89 3b 6b 18 62 3d b3 1a 81 bd
       -0.052071 0.004183185 0.055199068 -0.063039206
000070 c7 2d df bc 4b c4 2d bd 25 d3 af 3c 59 41 b6 bd
       -0.027243508 -0.042423528 0.021462986 -0.08899183

weight f4 [64, 32, 5, 5]
000000 70 49 9e bc 32 17 95 bc 9b 2e b3 bb 41 aa 87 bc
       -0.019322127 -0.018199537 -0.0054682023 -0.016560676
000010 c0 f2 d7 3b 8a d4 07 bc b2 fb 05 3b c8 70 00 bb
       0.0065902174 -0.008290419 0.0020444212 -0.0019598473
000020 b3 ed 18 3d e2 9f b5 bc f1 2d 3a 3d 07 38 be 3c
       0.037336063 -0.022170965 0.04545397 0.023220075
000030 0a 61 ee 3c a8 96 2e 3d 80 ed 31 3d ec cb c1 3c
       0.029099006 0.042624146 0.04343939 0.023656808
000040 ff e0 48 3c ff 8e a0 bc e3 07 7b bb 22 8f 56 3c
       0.0122606745 -0.019599436 -0.0038304261 0.013095649
000050 77 77 a2 3b 42 73 e5 bc 68 3d 8a bc b5 de bd 3c
       0.004958089 -0.02800906 -0.016874984 0.023177484
000060 84 61 1b bd f7 17 d0 3c 2c 86 b8 bc 94 97 8d bc
       -0.037934795 0.025402052 -0.022524916 -0.017284192
000070 4d f7 02 bc 2f c4 b6 bb 2f 9d 1b 3d ba 38 17 3d
       -0.007993531 -0.005577586 0.0379917 0.036919333
000080 08 92 29 3d 85 48 6d 3d 0e a3 1c 3d 05 cb 58 3b
       0.041399032 0.05793049 0.03824144 0.0033079993
000090 9a ba 96 bb e3 a3 20 bc 9a 97 0f 3c ce 0c e9 3c
       -0.0045998814 -0.009804699 0.008764172 0.028448489
0000a0 47 9e 12 bd 72 50 7b bc 63 f6 59 3c 97 d3 12 3c
       -0.035795476 -0.015339004 0.013303372 0.00896158
0000b0 1b ce 41 bd 53 d3 b5 3c cc 17 1d 3c a7 52 e3 bc
       -0.047315698 0.022195494 0.009588193 -0.027749373
0000c0 50 bf 26 bd 58 60 8f 3c 95 e4 64 bb f6 96 36 3c
       -0.040709794 0.017501995 -0.0034926285 0.01114439
0000d0 cf 2d 70 bc 7e 07 ce 3c 97 01 e7 3c ae 4e 15 bb
       -0.014659359 0.025150057 0.028199 -0.0022782492
0000e0 68 e5 27 3c 1d 3b c0 3c d9 3e f2 3c b5 5b 4c 3c
       0.010247566 0.023465687 0.029570984 0.012473037
0000f0 0e 08 ab bc 3a da f6 3c 57 60 08 3d 55 1e 08 3d
       -0.020877864 0.030133355 0.033295 0.033232052
000100 05 97 c1 bc 0a 6c 04 bd 73 53 c5 3c 76 59 e6 bc
       -0.023631582 -0.032329597 0.024087643 -0.02811883
000110 43 ce e5 bb d5 e5 20 3d 5d bd 82 3c a6 a6 8c 3b
       -0.0070131137 0.039281685 0.015959436 0.004292327
000120 d8 42 be b8 18 d1 14 bc ae 9f da 3c b8 d0 c2 bc
       -9.0723566e-05 -0.009083055 0.02668747 -0.023781165
000130 fa 78 3d bc 79 49 6c bc 0e 57 f7 3c 6f 7b 47 bb
       -0.011564488 -0.014421814 0.030192878 -0.0030438562
000140 38 27 f6 bb cc 0a e8 3c 41 35 d3 bb f1 98 ae 3c
       -0.0075119995 0.02832546 -0.0064455573 0.021313163
000150 cd f1 8a 3c ea 57 ca bb c5 0d c9 bc a3 12 17 bc
       0.016961003 -0.006175031 -0.024542699 -0.009220752
000160 e0 55 bd 3c 87 da fb 3c fa 26 81 3b 13 be 5e 3c
       0.023112237 0.03074385 0.003941414 0.013595122
000170 ba d9 6b 3b 40 9a a5 3b 4f e8 d6 3c 48 01 71 b8
       0.003598793 0.0050537884 0.02623382 -5.746007e-05
000180 55 19 86 bb b8 d5 20 3c b8 5a 8d 3c 3d d7 03 bd
       -0.0040923753 0.0098165795 0.017255172 -0.03218769
000190 05 b6 21 3c 06 5d 36 3c 42 66 ef 3c 88 2a ca 3b
       0.009870057 0.011130577 0.029223565 0.006169621
0001a0 d7 21 23 bc 04 94 0b bd 3c 68 08 b9 74 19 46 3d
       -0.0099567985 -0.034076706 -0.00013008801 0.048364118
0001b0 cd 2e 10 bb a1 cd ac bc 89 a9 a6 3b ff 13 23 3d
       -0.0022000552 -0.021094145 0.005086128 0.03981399
0001c0 23 70 6e 3d d3 c0 63 3d 09 aa 1d 3d c2 59 15 3c
       0.05821241 0.055603813 0.038492236 0.009115638
0001d0 65 65 c9 3c db a9 83 3c b5 61 9b bc 29 73 bd bc
       0.024584481 0.016072204 -0.018967489 -0.023126202
0001e0 1f 8c 17 bc dc ae e3 3c c6 0c a6 bb ac d5 9e bc
       -0.009249716 0.02779334 -0.0050674407 -0.019388996
0001f0 eb e2 54 3c c9 4b c0 bb 96 3d 0b bb 84 f0 8c ba
       0.012993555 -0.0058684093 -0.0021246425 -0.0010752832
000200 52 3b 12 bd 1d 3f fc 3b 7d 27 38 3c 4b ed 11 bc
       -0.035701104 0.0076979534 0.0112398835 -0.008906673
000210 20 61 58 bc b3 c0 32 3c ff 16 f5 bc 92 43 31 3c
       -0.01320675 0.010910201 -0.029918192 0.010819333
000220 56 cf b3 3b c4 9f 28 bc 24 c0 4a 3d be bd 2b 3c
       0.005487363 -0.010291997 0.049499646 0.01048225
000230 20 b3 bc 3c 2f 0d 41 3d ee 7c ec 3c 80 18 da bb
       0.023034632 0.047131713 0.028868165 -0.0066557527
000240 de d8 6d 3c 05 d5 6a bc 97 4d ab 3b 13 cc 2a bd
       0.014517037 -0.014333014 0.0052277553 -0.041698527
000250 95 e5 6e 3a 7e bc f0 bc df 09 0b bd b8 f8 44 3b
       0.000911319 -0.029386755 -0.03394496 0.0030055474
000260 f7 eb 3e 3b c4 4a 78 bc f3 f8 00 3d 26 1e 07 3c
       0.0029132345 -0.015154544 0.031487416 0.008246934
000270 0c ab 53 3b 8f 68 20 3c f5 c3 0d 3d 16 c9 3d bc
       0.0032297997 0.009790554 0.034610707 -0.011583587
000280 2e a4 8c 3c 6d 7a 4f bc 90 38 a9 3b 88 77 00 bc
       0.01716813 -0.012663466 0.0051642135 -0.0078409985
000290 11 68 ad bb ad 1f af 3c 49 82 88 3b d5 60 0f bb
       -0.0052919467 0.021377409 0.004165922 -0.0021877785
0002a0 82 3e 62 bc 26 e1 03 3c 0c ae 31 3d 36 4e db 3c
       -0.013808848 0.008049285 0.043378875 0.026770692
0002b0 31 ec 97 3c ab 66 04 3d 31 c8 da bc aa fd 3d bc
       0.018545242 0.032324474 -0.026706787 -0.011596123
0002c0 2e c3 02 bd 28 a4 33 bd d3 e8 b9 bc ad fe 16 bc
       -0.03192442 -0.043857723 -0.022694027 -0.009215993
0002d0 bd e9 7e bc 20 03 1d 3c 8b dc c5 bc c2 88 95 3c
       -0.015558657 0.009583265 -0.024153015 0.018253688
0002e0 a4 2c e1 bc 8f e0 c4 3b 13 7f c5 bb 9e 55 47 3d
       -0.027487107 0.006008215 -0.0060271113 0.048665635
0002f0 5a 4c 84 3c 65 12 db 3a e4 da 18 3d 74 6a 61 3d
       0.016149689 0.0016713856 0.037318125 0.055033162
000300 e2 02 52 3d 93 02 1b 3d f7 ab c9 3c c3 31 8a 3c
       0.05127228 0.03784425 0.024618132 0.016869431
000310 f0 50 4a bc 6d c5 d8 bb 59 5b 7a bc 01 10 30 3c
       -0.012348399 -0.006615332 -0.015280568 0.010746003
000320 d6 b2 81 bc 1b a7 17 bd a1 31 2a bd 57 ab 95 bc
       -0.015832346 -0.0370246 -0.041551236 -0.018270178
000330 ee dc fd 3c fb e8 8f 3c 4c be 0e bd 71 7c cd bc
       0.030989137 0.017567148 -0.03484945 -0.025083752
000340 c0 34 06 bd e1 04 24 bd b4 a1 10 bd e3 27 f2 3c
       -0.03276515 -0.040043715 -0.035310462 0.029560035
000350 e2 2f 13 bd 94 96 49 3c fe 6d ab 3c 08 8e 29 3d
       -0.035934336 0.012303967 0.020926472 0.041395217
000360 41 f5 5c 3d be ef 91 3d 9b 52 79 3d b6 73 c1 3b
       0.05394483 0.07125805 0.060869794 0.0059036864
000370 ea 06 70 bb e4 97 a6 39 16 68 cf bb d0 86 51 3d
       -0.0036625215 0.00031775155 -0.0063295467 0.051153958
000380 12 dd 0c 3d f4 d0 46 3d bc 1b c1 3c 1c 23 03 bb
       0.034390517 0.048539117 0.023572795 -0.002000994
000390 1e fa c5 3c f0 b8 c5 3c 34 5b c7 3c 8f 88 d8 bb
       0.024167117 0.024136037 0.024335481 -0.006608076
0003a0 ea d3 1f bc af 1f 36 bd d3 a8 3e 3d 17 1e 14 bd
       -0.009755114 -0.04446381 0.046547722 -0.03616151
0003b0 76 d7 91 bc 72 6b 9f bc 13 a6 22 bc ef 50 18 3d
       -0.017802935 -0.019460414 -0.0099272905 0.03718656
0003c0 6b 5b 13 bd 67 f7 38 bd 51 4a a6 bb 69 c7 ca bb
       -0.035975855 -0.045157816 -0.005074777 -0.0061883223
0003d0 2f cf cc 3c 43 16 be bc 9f 79 0e bc 3d 7e 29 3d
       0.025001137 -0.023203975 -0.008695989 0.041380156
0003e0 c1 2b d4 3c 57 91 e8 3c f2 8c e0 bc 03 7d bc bc
       0.02589977 0.028389616 -0.027410958 -0.023008829
0003f0 5d f2 8a 3c ec 40 73 3c c9 c7 e9 3c 7a 8b e5 3a
       0.016961271 0.014847022 0.028537648 0.0017512881

bias f4 [64]
000000 b9 7f 9a bc 40 74 df 3c 9e 04 41 bd d5 62 56 3d
       -0.018859731 0.027277112 -0.047123544 0.052340347
000010 2b 5f 9a bc c8 c5 4a bb 57 45 03 3d 57 bd 48 bd
       -0.018844208 -0.003094064 0.03204855 -0.049008694
000020 f9 bc cf bc b4 63 32 bc 7a 0b 46 bd a7 00 84 bd
       -0.025358664 -0.010888029 -0.04835079 -0.06445437
000030 1d 00 11 bc 82 4f 73 bd 18 0e bf bc 61 24 13 bd
       -0.008850125 -0.059401996 -0.02332215 -0.035923366
000040 70 83 03 bc 84 eb b3 bd f3 a9 f4 3a 81 b8 b2 bc
       -0.008026943 -0.087851554 0.0018666371 -0.021816494
000050 1f 03 04 3c 30 25 df 3c d8 3e b5 3b 98 6c 8f bc
       0.008057385 0.027239412 0.005531173 -0.017507836
000060 5c 19 4d bb e2 c0 d7 bc 6d 6b 7c bd d8 9f 46 3c
       -0.0031295633 -0.02633709 -0.061625887 0.012123071
000070 fc 66 7f bc 6b f0 19 bd 95 53 0e bc a0 19 14 bd
       -0.015588518 -0.037582796 -0.00868692 -0.03615725
000080 4d 0c 21 bd 39 30 dd bc c6 84 5f 3b b7 b9 fa 3c
       -0.03931837 -0.027000533 0.0034106239 0.030606134
000090 67 f9 c7 3b 42 e8 89 3c 76 4f 78 b9 8b f6 da 3c
       0.006102729 0.016834382 -0.00023680725 0.026728889
0000a0 ce 70 5b bc 20 88 3b bd 94 75 da 3b 93 59 13 bd
       -0.013393594 -0.045784116 0.0066668484 -0.035974097
0000b0 ff 57 c2 3b a9 b1 09 bd 54 d9 1b b8 86 f5 79 bd
       0.0059309 -0.033616696 -3.7157282e-05 -0.061025165
0000c0 a7 7c 06 3b 66 ff 17 bd 6f 86 75 bd 65 15 bf 3b
       0.0020521076 -0.0371088 -0.05994266 0.005831408
0000d0 37 57 e6 bb 31 3a ba 3c 12 90 42 3b 59 c1 b1 bd
       -0.00702944 0.022732826 0.0029687923 -0.08679456
0000e0 51 fb ef bb fb b0 ed 3b ef 0e 85 bc 86 de 0c bd
       -0.0073236604 0.0072537637 -0.016242472 -0.034391902
0000f0 0e 6b 8e 3c d8 68 3e ba a1 c6 1d 3c 58 12 86 3c
       0.017385032 -0.0007263548 0.009629876 0.016366169

weight f4 [64, 1024]
000000 e2 0f fa 3a c5 13 d2 bc 7a ab 60 3c b6 32 ba 3c
       0.001907822 -0.025644192 0.013712758 0.022729259
000010 3f 7f 70 bc 2b 83 c0 bc 9a 94 20 bd 7b da c2 3a
       -0.014678775 -0.023500046 -0.039204217 0.0014866138
000020 64 7c 30 3c b3 8e 0d 3d 6c b1 16 bc 2e 5f e7 bb
       0.010771845 0.034559917 -0.009197574 -0.007060907
000030 73 d0 4e bc 96 a6 30 bc 1e ae 45 bb 15 1d a3 3c
       -0.01262294 -0.010781905 -0.0030163596 0.019911328
000040 36 d3 ae 3b 6a 63 51 ba 3c bf 85 bb f8 fc bf 3c
       0.005335237 -0.0007987531 -0.004081635 0.023436055
000050 77 6d a2 3c 5b ed ff bc 56 91 ce 3c 7c 20 a4 3c
       0.019827588 -0.03124111 0.025215786 0.020035021
000060 52 f2 93 3c 19 93 e3 bb 53 44 a9 3c a9 30 ca 3c
       0.018059883 -0.0069450256 0.020662462 0.024681406
000070 9e c7 9c bc 84 da 87 bc 4b 79 f8 bc b1 98 00 3b
       -0.019138154 -0.016583689 -0.030331274 0.0019622261
000080 80 f4 b7 ba 57 a6 80 bc f2 81 e5 3c ec 32 3e 38
       -0.0014034659 -0.015704317 0.028016064 4.5346955e-05
000090 68 07 4e bc 03 5e 01 3d 82 33 e1 3b 42 fd ca 3c
       -0.012575008 0.031583797 0.0068725953 0.024778966
0000a0 83 8d 69 3c d2 2d 30 3b 77 9c a0 bc 32 0b ae bc
       0.01425493 0.002688278 -0.019605858 -0.021245573
0000b0 8c 4b ad bc e0 a2 38 3b 0d a5 ef bc 71 2b 9a bb
       -0.021154188 0.0028173253 -0.029253507 -0.0047048857
0000c0 a5 15 8d 3b 2b 0b 9c ba 7c e3 92 3b 2b 48 14 bd
       0.0043055587 -0.0011905184 0.0044826847 -0.036201637
0000d0 06 17 cd 3c f6 56 06 3d ad 91 a9 3c 14 07 1c bc
       0.025035392 0.032797776 0.020699346 -0.009523172
0000e0 f8 62 8a bc 9e 06 84 3c ef 15 0b 3d 90 be 24 3c
       -0.016892895 0.016116437 0.033956464 0.010055199
0000f0 72 b5 0c 3d 6d 4d 1c 3d 8c 01 88 3c 06 6c af bc
       0.034352727 0.038159776 0.0166023 -0.021413814
000100 e3 e6 80 3b ff fd 93 3c 9c 94 b3 bc bb df cc bc
       0.003933774 0.01806545 -0.021921448 -0.025009027
000110 2f b3 df 3c 14 3a 8c 3a de 3f be 3c 53 f7 13 3a
       0.027307121 0.0010698461 0.023223814 0.0005644459
000120 14 fd a4 3b c3 3d 93 bc 3b 1e 93 bc 0d 5b 80 3c
       0.005035052 -0.017973786 -0.017958751 0.015668416
000130 e7 52 aa bc ab da 80 bc 4c 43 cb bc a4 50 b1 3c
       -0.020791484 -0.015729269 -0.024812363 0.021644898
000140 86 8d 99 3c 35 e4 49 bc 45 71 10 bc 8b 56 d3 3c
       0.018744241 -0.012322475 -0.008816068 0.025798103
000150 ea 67 91 3b 4b 82 92 3c ff 8e b0 ba e8 7e ca 3c
       0.0044374363 0.017884394 -0.001347035 0.024718717
000160 0d ca a6 3c 01 00 e9 3b 22 b2 2e 3c cd ae e6 3c
       0.020360017 0.007110596 0.010662587 0.028159523
000170 51 b9 f0 bb 71 6d bc 3c 4f e9 d0 bc 4f 07 6d 3b
       -0.00734631 0.023001404 -0.025501875 0.0036167686
000180 1c 7e 6e bc 1f 7d 8a bc 8a 41 7e bc 12 55 0c 3d
       -0.014556434 -0.016905366 -0.015518555 0.034260817
000190 bb 4d 05 3d 10 b6 ee bc 8f 30 a0 3b 7f e1 2d 3c
       0.032544833 -0.029139549 0.004888601 0.0106128445
0001a0 75 47 8c 3b 57 31 0c bb 2f 23 c3 3c 02 49 3d bc
       0.0042809793 -0.0021391714 0.023820488 -0.011553051
0001b0 07 1d fc b9 ef f0 a5 bc c0 dc 15 3d b9 69 f1 bc
       -0.00048086813 -0.020256488 0.036587477 -0.029469358
0001c0 f3 bf a5 3c 17 d5 04 bd 12 59 e2 39 f7 ee c1 3b
       0.02023313 -0.03242978 0.00043172442 0.0059183794
0001d0 dd 17 88 39 1a 84 2c 3c 36 36 89 3c 4e f2 81 3c
       0.0002595772 0.010529542 0.016749483 0.01586261
0001e0 eb d6 63 3c 10 92 b3 3c 74 73 24 3c a6 69 22 bc
       0.013906221 0.021920234 0.010037292 -0.009912884
0001f0 e6 d1 ee bc 84 a1 b3 bc 1d 45 ca bc a6 52 3b 3c
       -0.029152822 -0.021927603 -0.024691159 0.011433279
000200 67 0b 5c bc 74 11 85 3c 52 fb 28 3c 22 c3 77 3b
       -0.013430453 0.016243674 0.010313826 0.0037805517
000210 dd f7 c5 bc ad 7b 67 ba 5e f3 eb 3b ce d6 91 bc
       -0.024166042 -0.000883038 0.0072006425 -0.017802622
000220 a7 cd 77 3c 6b 28 e2 3c e3 40 9b bb 61 dd cc 3b
       0.015124715 0.027607163 -0.0047379597 0.0062519764
000230 24 43 a6 bc 76 38 db bc 6e 90 94 bc 90 42 6b 3b
       -0.020295687 -0.026760321 -0.018135276 0.0035897829
000240 df e3 aa 3c ed 5e 8a 3b 91 cd f4 bc db 56 e7 bb
       0.02086061 0.004222742 -0.029883178 -0.0070599145
000250 19 e0 a1 bb 45 da 93 ba 66 2e 2b 3c 60 ad af b9
       -0.0049400446 -0.0011280259 0.010448074 -0.00033507776
000260 0b a5 67 3c 9e d4 52 bc 47 e0 c6 bc 69 41 02 bd
       0.01413847 -0.012868075 -0.024276866 -0.03180066
000270 1e dd a4 bc b0 08 d2 bc 61 da ea 3c 5f 10 35 3c
       -0.020124968 -0.025638908 0.028668584 0.011051266
000280 43 5a c4 bc 7a b7 f4 3c b8 c2 6e 39 55 a7 b6 bc
       -0.023968821 0.029872645 0.00022769987 -0.022296587
000290 fd c7 a4 bc 4f 03 b1 bc f2 a2 96 3c ef 3c 9e bb
       -0.020114893 -0.021608023 0.018388245 -0.004829041
0002a0 f5 8f d0 bc 06 69 58 3c f7 55 88 3c 19 ee de bb
       -0.025459269 0.013208633 0.016642554 -0.006803286
0002b0 21 50 9c 3c 21 b8 81 bc 64 9a 84 3c 01 18 ce bc
       0.019081177 -0.01583487 0.0161869 -0.02515793
0002c0 5d f6 15 bc a4 79 9e 3c e9 e2 5b bc 1f 6e fa bc
       -0.009152976 0.019345112 -0.013420799 -0.030570088
0002d0 c6 c0 bc 3a 09 05 b3 bc 03 05 96 3c f2 da 62 bc
       0.0014400713 -0.021852987 0.018312937 -0.013846146
0002e0 a9 6b cf bc a7 f6 49 bc 7a 7b ea bc 35 29 78 3c
       -0.025319891 -0.012326873 -0.028623331 0.015146543
0002f0 9a 1c b2 bc bf dc 05 bc 21 08 f5 bb c7 6d c6 bc
       -0.021742154 -0.008170306 -0.0074777757 -0.024222268
000300 76 c3 2b 3c 33 61 7c 3c c6 95 c3 3c 5c ac 42 bc
       0.010483613 0.0154040335 0.023875128 -0.011881914
000310 44 35 d3 3c e2 be 88 3c 04 e4 e9 3c 11 c9 af 3a
       0.025782235 0.016692583 0.02855111 0.0013411363
000320 2c f2 9e bc da a7 0e bb 32 7a 24 3d 04 be 98 3c
       -0.019402586 -0.0021767528 0.040155597 0.018645294
000330 51 b4 bb bb 4f 27 b6 3c b0 97 eb 3a ce 40 d7 3c
       -0.0057282825 0.02223554 0.0017974284 0.026276018
000340 6c 27 d6 3a b6 48 1a bd 52 b6 7e bb 65 53 be 3b
       0.0016338653 -0.037667 -0.0038865996 0.0058082812
000350 86 b5 b0 bc a7 77 40 bc f7 6a cc bc ee c3 14 bb
       -0.021570932 -0.011747277 -0.024953349 -0.002269979
000360 b3 86 84 3c 15 8b 1e bd 77 26 32 bc 93 5c ca 3c
       0.01617751 -0.038706858 -0.010873429 0.024702346
000370 0b 70 09 bc d1 9d f9 bc b9 46 2b bc da 49 5e 3c
       -0.0083885295 -0.03047076 -0.010453873 0.013567412
000380 9f b7 88 bb 6c 2b 91 3c b4 fa c9 3b 9c 20 dc bc
       -0.00417228 0.0177209 0.0061639193 -0.026871018
000390 03 6c 09 bd 48 23 8d bb 8c f0 f2 bc 35 0c a7 3c
       -0.033550274 -0.0043071844 -0.029655717 0.020391563
0003a0 00 de 68 3c 79 8b 0e bc 38 de 9e 3c 77 ff b0 bc
       0.014213085 -0.008700245 0.019393072 -0.02160619
0003b0 d7 c0 e1 bc 87 ff ac 3c 34 d0 95 3c 93 11 3b 3b
       -0.027557774 0.021117939 0.018287756 0.002854441
0003c0 b5 c0 a3 3b 92 8a e0 3c 2a 82 5d bc 75 32 f6 bc
       0.0049973377 0.027409825 -0.013519803 -0.030053357
0003d0 b5 05 90 3a 51 d6 45 bc 61 35 d2 bc c1 62 25 bd
       0.0010988029 -0.012075023 -0.025660219 -0.040377382
0003e0 2d 4b 8d 3c b7 47 70 bc 57 f7 4e 3b 8b 4f aa bc
       0.01724776 -0.014665536 0.0031580532 -0.020789882
0003f0 45 5c f4 bc 71 fb 6b 3b 32 92 ab 3b 0d 44 9c bc
       -0.029829154 0.0036008025 0.0052359337 -0.019075418

bias f4 [64]
000000 8d 50 4f 3c 35 34 d6 3c a9 bb 58 bb 45 cc 0d bc
       0.012653482 0.026147941 -0.0033070839 -0.008654659
000010 81 af 92 3c 07 90 63 bd 5d 19 89 3c 58 5d d3 3c
       0.017905952 -0.055557277 0.016735727 0.025801346
000020 a6 35 ea 3a 44 2c f6 39 f1 3e 28 bc 2c 14 c2 bc
       0.0017868772 0.00046953757 -0.010268913 -0.02369126
000030 ea b9 d8 bb b6 46 8f 3c e3 ba 01 3d bd bf 81 3b
       -0.0066139596 0.017489772 0.03167237 0.0039596246
000040 10 03 b9 bb d3 cd ba bc 8a c8 b1 bc 27 7b a2 bb
       -0.005646117 -0.022803223 -0.02170207 -0.0049585286
000050 54 f2 3d bc 99 d2 75 3c 7c 1a e1 bc 3e 50 05 3b
       -0.01159342 0.015003824 -0.027478449 0.0020342018
000060 0e c9 0a 3c 94 bd 89 3c f1 9c b3 bc d7 4e b0 3c
       0.008470787 0.01681403 -0.021925421 0.021521969
000070 66 37 cd 3c 0c 2c 16 3d 8a 92 89 3b 16 a7 0c 3d
       0.02505083 0.0366631 0.004198377 0.034339033
000080 9a c2 98 3c 62 9d 3f 3c 1f 59 0e 3c 75 81 8d 3b
       0.01864748 0.011695238 0.00868824 0.004318411
000090 b6 cb e1 ba be 1c 49 bc 44 80 54 bb 01 b8 cb b9
       -0.0017226848 -0.012274919 -0.0032425085 -0.0003885627
0000a0 19 90 a3 3c 5d dc 34 bc 11 77 31 3b 10 71 8e bc
       0.019966172 -0.011038867 0.0027079026 -0.017387897
0000b0 62 47 4f 3d 17 a9 ae bc ae 0b 8f 3c 97 60 0e 3c
       0.050605185 -0.021320863 0.017461624 0.008690021
0000c0 2a f3 d3 3b 2b b6 89 bc ab 0c 9e 3b ab d2 e2 3c
       0.0064681964 -0.016810497 0.0048232875 0.027688345
0000d0 a2 bd f0 3b 47 c1 f8 bb ac fb 04 bd a0 8c 3a ba
       0.0073468247 -0.0075914 -0.032466576 -0.00071162917
0000e0 a7 2f f5 bc 05 ff c1 3c 48 32 38 bc ac 35 0d bc
       -0.029929949 0.023681173 -0.011242457 -0.008618753
0000f0 0d 5e 3c bd e6 e6 d1 bc cb b8 c1 bc 7b 4b 36 3c
       -0.04598813 -0.025622796 -0.023647686 0.011126394

weight f4 [10, 64]
000000 18 17 1f be b0 ea 93 3d 01 f1 d0 bd bb a1 a4 3d
       -0.15536153 0.072224975 -0.10202218 0.0803866
000010 19 8b f9 3d b9 bb df 3d 33 b3 a5 3c 0f ac e2 bd
       0.12184734 0.10924477 0.02022705 -0.11067974
000020 ba 16 2a be 53 9b 04 3e 27 cc 5a bd 9c 5b 9b ba
       -0.16610232 0.12949876 -0.05341735 -0.0011852863
000030 ba c4 18 3c b6 6a c0 bd 05 9b 20 be 34 9a db bd
       0.009324247 -0.093953535 -0.15684135 -0.10722771
000040 c2 31 86 bd 42 2d 64 3d 4d 70 97 3c d9 74 95 bd
       -0.06552459 0.055707224 0.018486166 -0.072976775
000050 6f 41 68 be a0 36 df bd 57 88 b1 bd 43 08 9d bd
       -0.22681211 -0.10899091 -0.08668583 -0.076675914
000060 42 4f 17 bd d3 2f ea 3c 15 f3 ae 3c 82 ed 1e 3e
       -0.03694082 0.028587257 0.021356145 0.1552029
000070 3e 22 77 3d 93 d5 36 be c9 39 90 3d 92 01 2d 3d
       0.06033539 -0.1785491 0.07042272 0.042237826
000080 9d 1e ce bd ef ad 97 bd f4 b9 1b 3e 93 3b d9 bd
       -0.10064433 -0.07406222 0.15207654 -0.10607066
000090 59 22 f4 3d d9 0f 17 3e fb 2c 2d 3d f6 7d 78 3d
       0.11920614 0.14752139 0.042279225 0.060667
0000a0 8a f7 64 bd 32 f9 15 bc ac c8 01 3d a1 0d 4a bd
       -0.055900134 -0.009153651 0.031685516 -0.049329404
0000b0 21 1e 10 be 34 a1 c8 3d 62 1b 14 3d 17 d6 17 3a
       -0.14073993 0.09796372 0.036158927 0.0005792095
0000c0 5f b6 0d 3e 14 6e c1 3d c1 d5 34 be 96 56 4e 3c
       0.138391 0.09444824 -0.17659666 0.012593886
0000d0 87 59 fb bd d9 da 67 3d 63 c8 14 3e fb a4 8c 3d
       -0.12272935 0.056605194 0.14529566 0.06867405
0000e0 3d 3c 4b 3d ad ef 01 be 82 93 0c 3e 71 e5 54 bc
       0.049617995 -0.12689085 0.13728145 -0.012994156
0000f0 29 cd d7 3c ab 14 b6 3d 96 86 24 3e e7 99 57 3d
       0.026342945 0.08890661 0.16066965 0.052637007
000100 ad 17 e7 bd 50 58 00 be 0e 8d ce bd e9 95 2f 3d
       -0.11283813 -0.12533689 -0.10085498 0.042867575
000110 37 2b d7 bd cd 29 7e bd c1 e8 1e be f2 a6 d4 3d
       -0.105062895 -0.062051583 -0.15518476 0.10383405
000120 43 c2 53 bd 56 23 f3 3d d3 54 c3 bc ce b3 52 bd
       -0.051698934 0.11871974 -0.023844158 -0.051441006
000130 e2 ba 87 bd 37 46 6b bd a6 38 33 be f4 1f 72 3d
       -0.06627442 -0.05744001 -0.17502078 0.059112504
000140 1d b5 6c be d4 7c 53 be 25 47 e7 3d 6c 8a 8a 3d
       -0.23115964 -0.20653087 0.112928666 0.06764683
000150 55 b0 3a 3e bd 5a 6d be 90 31 02 3c ff e2 5c 3e
       0.18231328 -0.23179145 0.007946387 0.21570967
000160 f5 c2 af bd 05 8c e2 bd 10 4f 4b 3e de 16 8d 3d
       -0.08582107 -0.11061863 0.19854379 0.06889127
000170 d1 95 b0 3d c2 c6 63 be d5 13 7b 3d a6 0d 91 3d
       0.08622325 -0.22243789 0.06129821 0.07082681
000180 46 e8 0c be ff 4c 15 3e d0 2d df bd 00 7c 65 3d
       -0.1376048 0.14580153 -0.1089741 0.05602646
000190 4e a1 9a 3c d8 77 11 be fe 21 3f bd 2d 61 25 3e
       0.018875744 -0.14205873 -0.046663277 0.16150351
0001a0 10 01 e8 bd e6 54 03 3e 2c d6 69 3d 65 24 3e 3e
       -0.11328328 0.12825355 0.057089016 0.18568571
0001b0 6b 41 18 be f9 b7 b2 bd 7d 63 db bc 88 98 9a 3e
       -0.14868705 -0.08726496 -0.026780838 0.30194497
0001c0 6a c5 37 3d e6 9a ce bc 3d e2 24 be 14 45 95 bb
       0.044866003 -0.025220346 -0.16101928 -0.004555354
0001d0 50 8d 21 be e9 21 4e 3d c7 aa 81 3e e5 ed bd bd
       -0.15776563 0.050325308 0.25325605 -0.092738904
0001e0 d0 f9 51 bd 31 da 92 bd a5 26 ec bd d0 45 d8 bd
       -0.05126363 -0.07170523 -0.11530808 -0.10560191
0001f0 f4 c0 20 3e 32 83 12 bb 78 9a 06 be c4 9a e7 bc
       0.15698606 -0.002235603 -0.13144863 -0.02827204
000200 e1 67 d2 3d 18 3e 74 3d 7b e2 0b 3e c1 57 19 bd
       0.102737196 0.05962953 0.13660614 -0.037437204
000210 5b 58 b7 bd 01 ae 5b bd 08 ac ca 3d be 30 b7 3d
       -0.08952399 -0.05363274 0.098960936 0.08944844
000220 7f 73 a9 3d 91 9f 9d bd 45 e9 2f bd e1 ff 78 bd
       0.08273982 -0.076964505 -0.042947073 -0.0607909
000230 d8 ff 25 3e bd 11 47 3d 6b 13 2b bd b2 40 2a be
       0.16210878 0.0486009 -0.041766565 -0.16626242
000240 ba 43 87 bd 13 ff dd 3d 49 76 1e bd 23 22 cb 3d
       -0.06604715 0.10839667 -0.038687024 0.099186204
000250 38 90 1c be 04 21 8b 3d c1 81 34 bd 03 b1 ed 3d
       -0.1528939 0.067934066 -0.044069055 0.11606028
000260 61 60 01 3e 6c b1 e5 bb cb 73 44 be 06 14 49 ba
       0.12634422 -0.0070096757 -0.19184797 -0.0007670525
000270 d3 83 c9 3c ea 1a c4 3d 62 41 e3 3d d5 83 10 bd
       0.024598991 0.09575446 0.11096455 -0.035281975
000280 82 0a 9a 3d 8c c0 6f 3d 17 42 ac bd 09 29 16 3e
       0.075215355 0.058533236 -0.08411043 0.14664091
000290 ad 86 23 be f8 09 b5 3d fa e8 25 3e 50 cb 86 bd
       -0.15969343 0.08839792 0.16202155 -0.065817475
0002a0 07 d2 50 3d bf a6 31 be 65 3b 3a 3d 71 85 bf bd
       0.050981548 -0.17348765 0.0454668 -0.09351624
0002b0 1c 0b 63 3b e2 e2 89 3d 02 4e 2a 3e df 7b 3d bd
       0.0034644073 0.067327276 0.1663132 -0.04626071
0002c0 41 81 28 3e 1e 37 4f 3d f5 60 7d bd d7 d0 05 3d
       0.16455556 0.050589673 -0.061860044 0.03266987
0002d0 f3 48 e2 3c 69 44 99 bd 60 6c 8e bd 0f 83 0c 3d
       0.027622676 -0.07483751 -0.06954265 0.034304675
0002e0 e8 e8 27 3e bd a2 57 3c cf 36 a1 bd 2c a1 ed 3d
       0.1639744 0.013161358 -0.07871782 0.11603007
0002f0 b0 a1 2f 3d 2e f9 6a bc 47 72 5b bb 0a 2c 16 3d
       0.042878807 -0.014341636 -0.0033484863 0.036663093
000300 24 dc 01 bd 0e 79 98 bd dc e0 82 bd 95 a8 ac bc
       -0.031704083 -0.07444964 -0.06390545 -0.02107648
000310 f0 f4 2c bd 4f c1 c1 bd 11 93 4d bd b4 27 3b bd
       -0.042225778 -0.09460699 -0.05018908 -0.04569216
000320 24 7e 8e bc aa 14 a1 bd 5e 44 82 3d 93 2a 9e bd
       -0.017394133 -0.078652695 0.06360696 -0.07722964
000330 d8 f8 9c bd c0 b8 d1 bd be b5 ed 3d ab b4 ef bd
       -0.07664651 -0.102403164 0.1160693 -0.117043816
000340 06 13 0f 3d be 3b ba 3d fc d3 9d bd d2 2a 93 bb
       0.03493025 0.09093426 -0.077064484 -0.0044911886
000350 6a 15 8e 3d b0 2a c4 3d 4d 2e 0c be 00 29 cd bd
       0.06937678 0.095784545 -0.13689537 -0.10017586
000360 0c 6d f9 3c e5 2a f4 bd ed ce af 3d c0 b2 a3 3c
       0.030447505 -0.11922244 0.0858439 0.019982696
000370 f9 be 11 3d 84 7d 05 3e 5f f2 60 bd 76 04 0c bd
       0.035582516 0.13036162 -0.054918643 -0.03418394
000380 d5 af e5 bd 86 f2 33 3b 4f 45 32 3d 29 65 5e bc
       -0.11215178 0.0027457788 0.04352313 -0.013573923
000390 cb 1f f2 3d b3 d8 0c 3d 7b bb bb bd ed 29 16 be
       0.1182247 0.034386348 -0.091666184 -0.14664431
0003a0 05 83 2e bd 1f 27 00 bd 31 99 c7 3d 52 b6 83 3d
       -0.04260542 -0.03128731 0.09746016 0.06431259
0003b0 35 c0 0d 3e b8 0d b9 bd c5 87 1a 3e ad ad 30 be
       0.13842852 -0.0903582 0.15090854 -0.17253752
0003c0 db 5f a2 bd bf d5 02 be 55 00 b6 3c b2 df 1f 3e
       -0.07928439 -0.1277685 0.022216955 0.15612677
0003d0 07 ac 35 bd 7e 64 32 be 72 1e fe bd 41 27 2c 3e
       -0.04435351 -0.17421147 -0.12408151 0.16811849
0003e0 16 59 6d bd d8 98 bb 3d 67 32 c4 bc 48 41 10 3d
       -0.057946287 0.09160012 -0.023949815 0.035218507
0003f0 8b 18 15 be 7e be 46 bd b1 7d 06 be 83 2e 3c be
       -0.14560144 -0.04852151 -0.13133885 -0.18377118

bias f4 [10]
000000 32 7d 01 be 0f 9e ef 3d 0a 25 c3 bd 52 83 74 3d
       -0.12645414 0.11700069 -0.09528549 0.05969555
000010 86 78 ce 3c 56 2d 17 be dd 90 b6 3d 35 f5 bf bd
       0.025203954 -0.14763388 0.08914349 -0.093729414
000020 0c b2 08 be 64 42 01 3d
       -0.1334917 0.031557456
